Notebooks/Encoder_evaluation/gan_dict.pth (torch, 679113 bytes, 108 tensors)

pos_embed f4 [1, 60, 10]
000000 00 00 00 00 00 00 00 00 00 00 00 00 00 00 00 00
       0.0 0.0 0.0 0.0
000010 00 00 00 00 00 00 00 00 00 00 00 00 00 00 00 00
       0.0 0.0 0.0 0.0
000020 00 00 00 00 00 00 00 00 00 00 00 00 00 00 00 00
       0.0 0.0 0.0 0.0
000030 00 00 00 00 00 00 00 00 00 00 00 00 00 00 00 00
       0.0 0.0 0.0 0.0
000040 00 00 00 00 00 00 00 00 00 00 00 00 00 00 00 00
       0.0 0.0 0.0 0.0
000050 00 00 00 00 00 00 00 00 00 00 00 00 00 00 00 00
       0.0 0.0 0.0 0.0
000060 00 00 00 00 00 00 00 00 00 00 00 00 00 00 00 00
       0.0 0.0 0.0 0.0
000070 00 00 00 00 00 00 00 00 00 00 00 00 00 00 00 00
       0.0 0.0 0.0 0.0
000080 00 00 00 00 00 00 00 00 00 00 00 00 00 00 00 00
       0.0 0.0 0.0 0.0
000090 00 00 00 00 00 00 00 00 00 00 00 00 00 00 00 00
       0.0 0.0 0.0 0.0
0000a0 00 00 00 00 00 00 00 00 00 00 00 00 00 00 00 00
       0.0 0.0 0.0 0.0
0000b0 00 00 00 00 00 00 00 00 00 00 00 00 00 00 00 00
       0.0 0.0 0.0 0.0
0000c0 00 00 00 00 00 00 00 00 00 00 00 00 00 00 00 00
       0.0 0.0 0.0 0.0
0000d0 00 00 00 00 00 00 00 00 00 00 00 00 00 00 00 00
       0.0 0.0 0.0 0.0
0000e0 00 00 00 00 00 00 00 00 00 00 00 00 00 00 00 00
       0.0 0.0 0.0 0.0
0000f0 00 00 00 00 00 00 00 00 00 00 00 00 00 00 00 00
       0.0 0.0 0.0 0.0
000100 00 00 00 00 00 00 00 00 00 00 00 00 00 00 00 00
       0.0 0.0 0.0 0.0
000110 00 00 00 00 00 00 00 00 00 00 00 00 00 00 00 00
       0.0 0.0 0.0 0.0
000120 00 00 00 00 00 00 00 00 00 00 00 00 00 00 00 00
       0.0 0.0 0.0 0.0
000130 00 00 00 00 00 00 00 00 00 00 00 00 00 00 00 00
       0.0 0.0 0.0 0.0
000140 00 00 00 00 00 00 00 00 00 00 00 00 00 00 00 00
       0.0 0.0 0.0 0.0
000150 00 00 00 00 00 00 00 00 00 00 00 00 00 00 00 00
       0.0 0.0 0.0 0.0
000160 00 00 00 00 00 00 00 00 00 00 00 00 00 00 00 00
       0.0 0.0 0.0 0.0
000170 00 00 00 00 00 00 00 00 00 00 00 00 00 00 00 00
       0.0 0.0 0.0 0.0
000180 00 00 00 00 00 00 00 00 00 00 00 00 00 00 00 00
       0.0 0.0 0.0 0.0
000190 00 00 00 00 00 00 00 00 00 00 00 00 00 00 00 00
       0.0 0.0 0.0 0.0
0001a0 00 00 00 00 00 00 00 00 00 00 00 00 00 00 00 00
       0.0 0.0 0.0 0.0
0001b0 00 00 00 00 00 00 00 00 00 00 00 00 00 00 00 00
       0.0 0.0 0.0 0.0
0001c0 00 00 00 00 00 00 00 00 00 00 00 00 00 00 00 00
       0.0 0.0 0.0 0.0
0001d0 00 00 00 00 00 00 00 00 00 00 00 00 00 00 00 00
       0.0 0.0 0.0 0.0
0001e0 00 00 00 00 00 00 00 00 00 00 00 00 00 00 00 00
       0.0 0.0 0.0 0.0
0001f0 00 00 00 00 00 00 00 00 00 00 00 00 00 00 00 00
       0.0 0.0 0.0 0.0
000200 00 00 00 00 00 00 00 00 00 00 00 00 00 00 00 00
       0.0 0.0 0.0 0.0
000210 00 00 00 00 00 00 00 00 00 00 00 00 00 00 00 00
       0.0 0.0 0.0 0.0
000220 00 00 00 00 00 00 00 00 00 00 00 00 00 00 00 00
       0.0 0.0 0.0 0.0
000230 00 00 00 00 00 00 00 00 00 00 00 00 00 00 00 00
       0.0 0.0 0.0 0.0
000240 00 00 00 00 00 00 00 00 00 00 00 00 00 00 00 00
       0.0 0.0 0.0 0.0
000250 00 00 00 00 00 00 00 00 00 00 00 00 00 00 00 00
       0.0 0.0 0.0 0.0
000260 00 00 00 00 00 00 00 00 00 00 00 00 00 00 00 00
       0.0 0.0 0.0 0.0
000270 00 00 00 00 00 00 00 00 00 00 00 00 00 00 00 00
       0.0 0.0 0.0 0.0
000280 00 00 00 00 00 00 00 00 00 00 00 00 00 00 00 00
       0.0 0.0 0.0 0.0
000290 00 00 00 00 00 00 00 00 00 00 00 00 00 00 00 00
       0.0 0.0 0.0 0.0
0002a0 00 00 00 00 00 00 00 00 00 00 00 00 00 00 00 00
       0.0 0.0 0.0 0.0
0002b0 00 00 00 00 00 00 00 00 00 00 00 00 00 00 00 00
       0.0 0.0 0.0 0.0
0002c0 00 00 00 00 00 00 00 00 00 00 00 00 00 00 00 00
       0.0 0.0 0.0 0.0
0002d0 00 00 00 00 00 00 00 00 00 00 00 00 00 00 00 00
       0.0 0.0 0.0 0.0
0002e0 00 00 00 00 00 00 00 00 00 00 00 00 00 00 00 00
       0.0 0.0 0.0 0.0
0002f0 00 00 00 00 00 00 00 00 00 00 00 00 00 00 00 00
       0.0 0.0 0.0 0.0
000300 00 00 00 00 00 00 00 00 00 00 00 00 00 00 00 00
       0.0 0.0 0.0 0.0
000310 00 00 00 00 00 00 00 00 00 00 00 00 00 00 00 00
       0.0 0.0 0.0 0.0
000320 00 00 00 00 00 00 00 00 00 00 00 00 00 00 00 00
       0.0 0.0 0.0 0.0
000330 00 00 00 00 00 00 00 00 00 00 00 00 00 00 00 00
       0.0 0.0 0.0 0.0
000340 00 00 00 00 00 00 00 00 00 00 00 00 00 00 00 00
       0.0 0.0 0.0 0.0
000350 00 00 00 00 00 00 00 00 00 00 00 00 00 00 00 00
       0.0 0.0 0.0 0.0
000360 00 00 00 00 00 00 00 00 00 00 00 00 00 00 00 00
       0.0 0.0 0.0 0.0
000370 00 00 00 00 00 00 00 00 00 00 00 00 00 00 00 00
       0.0 0.0 0.0 0.0
000380 00 00 00 00 00 00 00 00 00 00 00 00 00 00 00 00
       0.0 0.0 0.0 0.0
000390 00 00 00 00 00 00 00 00 00 00 00 00 00 00 00 00
       0.0 0.0 0.0 0.0
0003a0 00 00 00 00 00 00 00 00 00 00 00 00 00 00 00 00
       0.0 0.0 0.0 0.0
0003b0 00 00 00 00 00 00 00 00 00 00 00 00 00 00 00 00
       0.0 0.0 0.0 0.0
0003c0 00 00 00 00 00 00 00 00 00 00 00 00 00 00 00 00
       0.0 0.0 0.0 0.0
0003d0 00 00 00 00 00 00 00 00 00 00 00 00 00 00 00 00
       0.0 0.0 0.0 0.0
0003e0 00 00 00 00 00 00 00 00 00 00 00 00 00 00 00 00
       0.0 0.0 0.0 0.0
0003f0 00 00 00 00 00 00 00 00 00 00 00 00 00 00 00 00
       0.0 0.0 0.0 0.0

l1.weight f4 [600, 100]
000000 ad 6a 73 bd 8d 7a 55 bc ad 5e 60 3d dd fc ac 3d
       -0.059427906 -0.013029707 0.05477779 0.08446667
000010 3d f7 26 bd bd e8 3f 3d 5a 75 b4 bd 4d ef 66 bd
       -0.04076313 0.046852816 -0.088114455 -0.05638056
000020 02 5d a2 3d 67 72 97 3d 37 be 28 bd 73 03 87 3c
       0.07927896 0.073948674 -0.041197028 0.016481137
000030 7a 6d b3 bc f2 08 99 bd d0 81 0d 3d 6a bf 32 bd
       -0.021902788 -0.07472409 0.034547627 -0.043639578
000040 33 ab d9 ba 7a c3 06 3d bf 4b 94 3d 67 fb 51 3b
       -0.0016606807 0.032901265 0.0724101 0.0032040717
000050 0a 80 c9 bd c0 4f 01 bc 87 36 4c bd 1a 41 49 bd
       -0.09838875 -0.007892549 -0.04985669 -0.04913435
000060 17 ab bb 3d e7 46 7d 3c 48 b3 a9 3d a7 f6 8a bd
       0.09163492 0.015458799 0.08286148 -0.067853265
000070 cd f8 b2 bd 53 b4 4a bd 67 b2 e8 3b 27 c9 5b bc
       -0.08738861 -0.049488377 0.0071013453 -0.013414658
000080 f3 36 c3 3d 2a 5f 33 3d b3 99 c5 3d cd 44 f7 bc
       0.09531965 0.043791927 0.096484564 -0.030184174
000090 fa fa ca 3d 07 3c 79 bd 17 9a 61 bd dd 1f 83 bd
       0.09911151 -0.060848262 -0.055078592 -0.06402562
0000a0 93 02 20 bd d3 d9 1b bd c8 8f ad bd c0 94 97 3c
       -0.039064955 -0.03804953 -0.0847469 0.018503547
0000b0 93 ef c9 bd ea 30 ba bd fa cf ab bc 2a 2e 2e bd
       -0.09860148 -0.09091361 -0.020973194 -0.042524494
0000c0 8b ec 98 3d 22 95 96 bd 5a 3a 29 bc 10 c4 29 3d
       0.07466992 -0.073526636 -0.0103288535 0.041446745
0000d0 4d 92 b4 bc a8 ca 99 bd 27 ce 07 bc 67 61 a7 3b
       -0.022042418 -0.07509357 -0.008288897 0.005108047
0000e0 fd bb 99 3d a3 bb 57 3d b3 1c 28 3d 3f 30 b4 bd
       0.07506559 0.05266918 0.041042995 -0.08798265
0000f0 9d 12 80 3d a3 84 0e 3d a3 1e 86 3d 27 34 af 3d
       0.0625355 0.03479446 0.06548812 0.08554869
000100 7d c8 c0 bd 40 42 38 bc 07 56 bd 3d c7 21 15 bd
       -0.0941324 -0.011246264 0.09244924 -0.036409166
000110 13 85 fe bc 1a cf 90 3d d3 de 5e bd 37 5f 28 3d
       -0.031069314 0.070707515 -0.05441172 0.04110643
000120 9a 10 89 bd aa 0a 65 3d 87 f0 7e 3d 27 0f 23 3c
       -0.066926196 0.055918373 0.062241104 0.009952343
000130 ad 0c a7 3c 6a 1c 90 bd 42 df b5 bd 67 98 29 3d
       0.020391786 -0.070366696 -0.08880474 0.041405108
000140 cd 8a 23 bb a7 e4 72 bd da fb a4 3c 3a 35 11 3d
       -0.0024954558 -0.05930009 0.020139623 0.03545115
000150 cd 08 03 3c 3d 38 7d 3d 1d 6b 3d bd cd a6 ba bc
       0.007997704 0.06182121 -0.04624473 -0.022784615
000160 5a a8 78 bc 50 18 6d 3d 7d f9 04 bd 93 ae be 3d
       -0.015176857 0.057884514 -0.032464493 0.09310641
000170 ba d7 d0 bc f3 95 87 bc 2a 42 34 bd ba 38 2a 3d
       -0.025493491 -0.016550994 -0.04400841 0.041558005
000180 0d 78 2f bd 83 b8 4a 3d e8 63 a3 3d aa 12 8d bd
       -0.0428391 0.04949237 0.0797804 -0.068883255
000190 33 3a 11 bc 40 18 ec bc 32 c8 a3 3d 87 ec b6 3d
       -0.008863973 -0.028820157 0.079971686 0.08931833
0001a0 93 33 25 3d b3 b7 b3 3c bd b5 77 bd 1a 8e af bc
       0.040332388 0.02193818 -0.060476054 -0.021430064
0001b0 fa 93 f5 bc e7 83 ef bb 67 76 ad ba 1a 78 8b bb
       -0.029977787 -0.007309425 -0.0013234139 -0.0042562606
0001c0 73 6f 1d bc b3 9e 8b bc aa d2 88 3d 62 18 96 bd
       -0.009609091 -0.017043447 0.06680806 -0.073288694
0001d0 43 6d 65 bd 00 bd 25 3d 1a 57 e7 bc 73 a1 0f bc
       -0.056012403 0.040463448 -0.028239775 -0.00876652
0001e0 67 1b 73 bb 0a b9 0e bd 3f a2 83 3d 90 3b 57 bd
       -0.003709519 -0.034844436 0.0642743 -0.052547038
0001f0 00 5e f1 bc b8 bd c8 3d e0 68 e1 bc 12 a3 9e 3d
       -0.029463768 0.09801811 -0.027515829 0.07745947
000200 20 ff a7 3d 0a 2b 01 3d d0 e2 b4 bd 40 9d 9f 3d
       0.08202958 0.031535186 -0.088323236 0.07793665
000210 0a 9e 29 3d ba d0 9f 3d 73 34 99 3d 20 03 72 3d
       0.041410483 0.07803483 0.07480707 0.05908501
000220 28 9e b2 bd 97 e9 79 3d f3 d4 f3 bc b3 45 7c bd
       -0.08721572 0.061013784 -0.029764628 -0.061589908
000230 28 fa 9d bd e7 8f 5a 3d b7 bf 3e bd bb ba 84 3d
       -0.07713729 0.053359892 -0.046569552 0.064809285
000240 a5 cf b3 bd 80 23 64 3c bb c9 80 3d 10 aa 15 3d
       -0.087798394 0.0139244795 0.06288477 0.036539137
000250 ad dd 2f bd ba 9a 35 bd e7 22 bc bd 80 40 26 bc
       -0.042936016 -0.044337012 -0.091863446 -0.010147214
000260 fa 7c b6 3d 27 f9 a5 3d 5a f5 4f 3c d7 7d 68 3d
       0.08910556 0.08104163 0.012692774 0.056760635
000270 0d 0a 66 bc 18 7e c5 bd 80 cd 6d bc 88 97 ba bd
       -0.014040482 -0.09643191 -0.014514327 -0.091109335
000280 fd 58 a6 3d e3 a2 37 bd f7 37 7c bd f3 3a ba bd
       0.08122442 -0.044833075 -0.06157681 -0.09093275
000290 40 b2 95 bd 50 35 a5 bd cd 5c ac 3b b3 ee c9 bb
       -0.07309389 -0.08066809 0.005260086 -0.0061624884
0002a0 7d e2 40 bd 2d 05 cc bd 40 a4 78 bc 7d 24 5f 3d
       -0.047090996 -0.09961925 -0.015175879 0.054478157
0002b0 50 fa 74 3d b3 eb 8c bd 92 1b af bd 57 6a 40 3d
       0.05980903 -0.068808936 -0.085501805 0.046976414
0002c0 93 81 06 bd 43 77 03 3d 80 8d 9b 3c 00 3a b1 bd
       -0.032838415 0.03209616 0.01898837 -0.08653641
0002d0 33 62 34 bc 27 e9 dc bc ca f9 c9 bd 03 f4 c2 3d
       -0.011009741 -0.026966644 -0.098620966 0.09519198
0002e0 83 65 1c bd 92 78 ba 3d fb a0 b9 bd da a3 93 3c
       -0.038182747 0.09105028 -0.09063908 0.018022466
0002f0 0f 41 c5 3d b7 91 b4 bd c8 e3 b6 3d fd ce 05 bd
       0.096315496 -0.088168554 0.089301646 -0.032668103
000300 9d 29 55 bd 03 d6 5a bd b2 6d 94 3d 73 89 9a 3c
       -0.05204164 -0.053426754 0.07247485 0.018864369
000310 ad 3d ac 3d ed 65 73 bd f7 51 a4 3d 2d 47 ca 3d
       0.08410201 -0.059423376 0.08023446 0.09876857
000320 ff 91 b9 bd fd b9 59 3d 10 f1 ba bd 7d 13 14 bd
       -0.0906105 0.053155888 -0.0912801 -0.036151398
000330 0d fb 6c bc 0d 78 b5 bc 77 76 bf 3d 52 70 92 3d
       -0.014464152 -0.022151971 0.09348767 0.0715033
000340 fd c9 3e 3d a0 36 c2 3c 65 b1 a5 bd 10 f1 1f bd
       0.04657935 0.023707688 -0.08090476 -0.039048254
000350 13 34 87 bc cd 47 06 3b ca 69 5e 3d 17 2a cc 3d
       -0.016504323 0.0020489574 0.054300107 0.099689655
000360 dd 63 c7 3d ca 59 c7 bd 2b a0 c1 3d 43 9c 93 3d
       0.09735844 -0.09733923 0.09454378 0.07207539
000370 93 ba 71 3d 9a 6b 1d bb bd de 3b bd 5a ba 5e bc
       0.05901582 -0.0024020434 -0.045866717 -0.013594234
000380 ed 2e 55 bd eb 18 a5 3d c0 c7 8b bd cb 14 a6 bd
       -0.052046705 0.08061393 -0.06825209 -0.08109435
000390 4d bc d3 3c 9a 95 e8 ba d7 38 98 bd 3d fc 84 bd
       0.025846625 -0.001774478 -0.07432716 -0.06493423
0003a0 28 8e 98 bd 7d 43 66 bd 9a 23 83 bc 80 72 3c 3c
       -0.07448989 -0.056216706 -0.016008187 0.011501908
0003b0 7a 5b 1d 3d e7 34 37 bc 4d af ed bb 70 8a a2 3d
       0.038417317 -0.0111820465 -0.0072535635 0.07936561
0003c0 67 ab ab 3b dd 71 7b bd 67 4f 5b 3d 8d a7 15 bd
       0.0052389386 -0.061387885 0.05354252 -0.036536742
0003d0 5a 0f 81 3d 0f de b6 bd 7a 45 79 bd c0 64 f3 bc
       0.06301756 -0.08929073 -0.060857274 -0.029711127
0003e0 70 27 95 3d 4b 24 c8 bd 9a c4 3d 3c 28 24 8f bd
       0.07282913 -0.09772547 0.011582518 -0.06989318
0003f0 20 02 c9 3c 90 1b 2f 3d 53 f1 4a bd 6d c0 90 3d
       0.024537146 0.042750895 -0.04954655 0.07067952

l1.bias f4 [600]
000000 20 4b e2 bc 33 9a df bb 4f f3 b8 bd 1f 0e c8 3d
       -0.027623713 -0.006823802 -0.090307824 0.097683184
000010 73 71 cc 3d d7 64 1c bd a7 8f 57 3c c7 4a 7a bd
       0.09982576 -0.038182106 0.013156808 -0.06110647
000020 f3 ec 56 bc c7 47 5d bd d0 f7 a3 bd 5d 65 b6 3d
       -0.0131180165 -0.05402353 -0.08006251 0.08906052
000030 6d 8b a4 3c 1d e8 72 bd 2f c3 b7 3d 9b c5 89 bd
       0.020086015 -0.05930339 0.08972775 -0.067271434
000040 67 58 8a 3c 3a 19 96 3d 73 03 31 3c 1d 12 c7 3d
       0.016887857 0.0732903 0.010804045 0.09720252
000050 33 3f 5b 3c 6d 63 37 bd e7 a8 49 3d 00 01 b0 bd
       0.013381767 -0.044772554 0.049233343 -0.08593941
000060 3a b2 3f bd 18 c7 8a bd 7a a7 5a bd fd 85 9b bd
       -0.04680083 -0.06776255 -0.053382374 -0.075939156
000070 db 98 9a bd 17 d1 2f 3d c0 8f 2f bc 0d d8 e3 3c
       -0.07548686 0.042924013 -0.010715425 0.027812982
000080 4f 94 8c bd bd d2 22 3d cd 1b c6 3d 3b 59 be 3d
       -0.06864225 0.039751757 0.09673271 0.09294363
000090 a3 70 17 bd c0 51 7e 3d 13 ab d9 bc ca 82 a7 bd
       -0.036972653 0.06208968 -0.026570832 -0.08179243
0000a0 2d f0 d4 3c 8d f7 c7 bd 9a ad 14 bd d7 c0 2e 3d
       0.025993431 -0.097640134 -0.03629837 0.042664375
0000b0 d3 b3 77 bd e0 b1 76 3d a7 9d 77 bd 70 1d 9c 3d
       -0.060474228 0.06022823 -0.060453083 0.07622802
0000c0 aa 8a 8f bd 33 03 30 3d 9a 89 8a bd 42 58 8e 3d
       -0.0700887 0.0429718 -0.06764527 0.069504276
0000d0 83 bb 02 3d ea 5d 71 3d 18 aa 96 3d aa 97 29 bd
       0.031917106 0.058927454 0.073566616 -0.041404404
0000e0 4d c5 e9 bc 1d 58 a4 bd d3 f9 f4 3c 37 87 27 3d
       -0.028536463 -0.08024619 0.029904282 0.040900435
0000f0 e8 ca b8 3d da d3 51 3d 9a 2f 70 3c ad f6 17 3d
       0.09023076 0.051227428 0.014659787 0.037100483
000100 73 eb 8a 3c b3 6f 10 bd 80 75 8b 3d 27 18 a2 bd
       0.016957974 -0.035262775 0.06809521 -0.07914763
000110 b3 b6 ad bb fa 8c d3 3c c3 4c 86 3d 20 a4 f3 3c
       -0.0053013205 0.025824059 0.0655761 0.029741347
000120 a7 93 7c 3c 00 28 e4 3b 7d 17 c7 bd 13 4b 0c 3d
       0.015416062 0.006962776 -0.09721277 0.034251284
000130 5b a1 9a bd 67 de ad 3c 1b e7 c5 bd ba 21 ee 3c
       -0.07550307 0.021224214 -0.096632205 0.029068816
000140 9a dd 02 3b 9d e8 9b bd 2a 3b 86 bd 6f 35 89 3d
       0.001996851 -0.07612727 -0.065542534 0.06699645
000150 90 50 90 bd 87 aa 80 3c 5a e9 6b 3c fa d3 5b bd
       -0.07046616 0.015706314 0.014398897 -0.053668953
000160 18 52 9a 3d 3d ee 92 3d 6d 16 9d 3d 7a c3 ca 3c
       0.075351894 0.071743466 0.07670293 0.024751414
000170 ed 27 ef 3c 0d 1b b1 3d a3 31 33 3d 53 10 33 bd
       0.029193843 0.08647738 0.04374851 -0.04371674
000180 bd 3a 03 bd 9a 85 2c 3d c7 e4 9c 3c 3a 11 bc bc
       -0.03203844 0.0421196 0.019152058 -0.022957433
000190 70 27 9c bd 87 1c 5e bd a0 d0 2b bd c7 05 a4 bd
       -0.076247096 -0.054226425 -0.041947007 -0.080089144
0001a0 80 63 57 3c 03 9b 00 3d 97 61 b8 3d a0 84 cb bc
       0.013146281 0.03139783 0.09002989 -0.024843514
0001b0 ed 79 fa 3c 40 80 5d 3c 33 a5 78 3d 85 97 c0 bd
       0.030575717 0.013519347 0.06070442 -0.094039
0001c0 e7 d7 ed bc 40 23 cb bc ba 55 a3 3c ad 2b 69 3d
       -0.029033614 -0.024797082 0.019938339 0.056926418
0001d0 33 44 1d bd cd 5f 6e bd c3 03 8e bd ed 47 94 3c
       -0.038395118 -0.05819683 -0.06934311 0.018100703
0001e0 67 3a 3a bd fd 3e b0 bd 93 83 97 bd db 35 a5 3d
       -0.045465853 -0.08605764 -0.07398143 0.08066913
0001f0 53 31 53 bd dd df a8 bd b3 c2 28 3c 25 75 c7 3d
       -0.05156071 -0.082458235 0.010300326 0.097391404
000200 90 c3 02 3d 9d 5c 0c 3d 70 f5 0a 3d 9a 1e a9 3d
       0.031924784 0.03426801 0.033925474 0.0825779
000210 e7 7c bf 3d 60 2a 93 bc 0d 03 c9 bd f5 a4 b9 bd
       0.09349995 -0.017964542 -0.09815035 -0.09064666
000220 ff b0 b3 3d 5a c8 6a 3d e7 3b d6 3b b0 c2 88 bd
       0.08773994 0.057319976 0.0065379026 -0.06677759
000230 50 f9 8c 3d 9d 86 1e 3d af 7b 8c bd 77 6e 60 3d
       0.0688349 0.038702596 -0.06859528 0.054792847
000240 a0 1d 3b bd 9a ea d6 3b 87 5f 90 bc 03 a3 75 bd
       -0.04568255 0.0065587284 -0.017623676 -0.059969913
000250 da 76 c9 3c 20 5b 2c bd 1a 75 eb bb 9a 62 8d 3d
       0.024592806 -0.04207909 -0.0071855905 0.069035724
000260 4f 6b b3 bd e0 db 0e 3d 80 d9 6d bd e7 10 10 3d
       -0.08760702 0.034877658 -0.058068752 0.03517237
000270 a7 57 26 bc 9a 54 5b bd 0d 6a 6c bd c8 f1 83 3d
       -0.010152734 -0.05354748 -0.057718325 0.064426005
000280 13 47 b6 bd 73 14 cc 3d 63 34 72 3d 9d 08 72 bd
       -0.08900275 0.09964838 0.05913199 -0.059090246
000290 f2 ed a6 bd a0 f2 75 bd 9a 72 8c bd 07 e6 74 3d
       -0.08150853 -0.06004584 -0.06857796 0.059789684
0002a0 a3 d2 03 bd 5a ac 91 bc d3 45 8c 3c 7a ca 3f bd
       -0.0321833 -0.017782379 0.017123139 -0.046823956
0002b0 5b 04 93 bd 03 d2 a4 bd 3a 94 9f bc 8a b1 16 3d
       -0.07178565 -0.08047869 -0.01947986 0.03679041
0002c0 0d fb 79 3c ad 46 60 3d 13 cb c7 3c b5 8e a4 3d
       0.015257609 0.0547549 0.024388826 0.08035032
0002d0 33 c7 39 bc c8 6e 96 3d 83 e0 2c bd 67 a0 fe ba
       -0.011338997 0.073453486 -0.0422063 -0.0019426466
0002e0 60 ef 8b 3c ea 6d 65 3d 6d d3 bd 3d 7a 10 7a bd
       0.017081916 0.056013025 0.09268842 -0.06105087
0002f0 62 9e 99 bd f3 9d 76 bc ad b9 3c 3d 33 63 73 bb
       -0.07500912 -0.0150523065 0.04607551 -0.0037137985
000300 30 b1 06 bd 15 fb 9c 3d 73 17 63 3c ba 65 8c 3c
       -0.032883823 0.076650776 0.013860571 0.01713835
000310 43 88 cb bd a7 68 7e bc 0b 1a b6 bd c7 17 15 bd
       -0.09938099 -0.015527881 -0.08891686 -0.03639963
000320 6d 6c a6 bc 62 4a 84 bd af 89 b4 3d 98 86 9a bd
       -0.020315373 -0.064595 0.088153236 -0.07545203
000330 33 27 89 bd fa d9 a9 bc d3 55 85 bc 2b 14 98 3d
       -0.0669693 -0.020733822 -0.016276276 0.07425722
000340 f3 fa 1b 3d 48 cc 97 3d a7 ab 4a bc 9a a5 71 3d
       0.03808112 0.074120104 -0.012370027 0.05899582
000350 9a 92 14 bc 5d cb 27 bd 52 fe 84 bd cd f0 c3 bb
       -0.009068156 -0.040965427 -0.0649382 -0.0059796334
000360 a7 fc 84 bd 0d 5c d4 bc 00 af 8e bb 33 16 10 bd
       -0.06493502 -0.0259228 -0.0043543577 -0.03517742
000370 8a 4a 0f 3d 8b 27 c1 bd 73 08 43 3d d8 e6 94 3d
       0.034983195 -0.0943137 0.04761548 0.072705925
000380 98 2d 8c bd aa 4b 32 bd 6a 50 bb 3d 33 5a b0 3d
       -0.06844634 -0.04352919 0.09146197 0.08610954
000390 47 70 d3 bc 97 ff 91 bd 9a 54 7f 3b 4d 20 0f 3c
       -0.025810374 -0.07128828 0.0038960339 0.008735728
0003a0 47 88 2c 3d 33 1a 18 bd f7 b4 5a 3d aa f7 b8 3d
       0.04212215 -0.03713436 0.053395238 0.09031613
0003b0 c2 bc 8e 3d 85 5a b9 bd 07 e2 9f 3c 67 32 50 ba
       0.069695964 -0.09050468 0.019516958 -0.0007942081
0003c0 73 2c ee 3c 17 a7 b8 3d da de 7c 3c a7 d3 a5 3d
       0.02907393 0.09016245 0.015433991 0.0809701
0003d0 d8 cf 83 bd 3d 0f c1 bd 1a 74 84 3c 75 26 b2 3d
       -0.064361274 -0.094267346 0.016168643 0.08698741
0003e0 c7 aa 6b 3d 20 51 63 bd 37 46 09 3d 23 91 0c 3d
       0.057535913 -0.05549729 0.033514228 0.0343181
0003f0 ed 98 88 bd b3 dc 9b 3d f7 25 ad 3d 5b 35 aa bd
       -0.06669793 0.076104544 0.08454507 -0.08310958

blocks.0.0.fn.0.weight f4 [10]
000000 00 00 80 3f 00 00 80 3f 00 00 80 3f 00 00 80 3f
       1.0 1.0 1.0 1.0
000010 00 00 80 3f 00 00 80 3f 00 00 80 3f 00 00 80 3f
       1.0 1.0 1.0 1.0
000020 00 00 80 3f 00 00 80 3f
       1.0 1.0

blocks.0.0.fn.0.bias f4 [10]
000000 00 00 00 00 00 00 00 00 00 00 00 00 00 00 00 00
       0.0 0.0 0.0 0.0
000010 00 00 00 00 00 00 00 00 00 00 00 00 00 00 00 00
       0.0 0.0 0.0 0.0
000020 00 00 00 00 00 00 00 00
       0.0 0.0

blocks.0.0.fn.1.keys.weight f4 [10, 10]
000000 b7 18 c3 bd 51 cd 79 be 74 a7 46 be 8a 88 2a 3e
       -0.09526198 -0.24394728 -0.19399816 0.16653648
000010 4b a6 51 3e 7d 3c 84 3e 84 85 4e be 34 9f ff 3d
       0.20473592 0.258274 -0.2016812 0.124815375
000020 5a 99 94 3e 81 a3 6c be 92 30 1e 3e 92 3c 8b 3e
       0.29023248 -0.23109247 0.15448216 0.2719465
000030 a6 db 49 3d 2c b9 21 3b ca 48 c7 3d 3e bf 94 3e
       0.04928174 0.0024677021 0.0973068 0.29052156
000040 a1 90 a1 be f1 4f da 3d 34 89 81 3e f3 f4 8d be
       -0.31555656 0.10659779 0.2529999 -0.27725944
000050 46 5b a8 bd b7 a1 90 be 85 1b 7b 3e f3 7b 9a be
       -0.08220534 -0.2824838 0.24522217 -0.3017269
000060 a1 59 3f be b6 cf 6e 3e ce 9b 30 3e 3a 00 29 bd
       -0.18686534 0.23321423 0.17246935 -0.04125998
000070 5d 98 53 3e 6c cf 00 be 1a ac dd bd ef 30 74 bd
       0.2066359 -0.12579125 -0.108238414 -0.05961698
000080 44 bd 96 be e6 6b c2 bd e9 b6 95 be 6a 33 83 3e
       -0.29441273 -0.09493236 -0.29241112 0.25625163
000090 3f 90 91 be 87 11 3a 3e c7 85 13 3e c3 a9 0f 3d
       -0.28430364 0.18170749 0.14406501 0.035074007
0000a0 c4 a5 50 be 6b 2a 20 3e 42 44 28 3e 0c c6 78 3e
       -0.20375735 0.15641181 0.16432288 0.24294299
0000b0 e4 b5 b1 3d 06 ae 1c 3e c0 09 17 3e 2f 41 96 3e
       0.08677271 0.1530076 0.14749813 0.29346606
0000c0 c1 45 4a be 33 56 49 3e 54 98 b5 3d 14 07 45 be
       -0.19753172 0.19661789 0.08866945 -0.19240981
0000d0 32 44 8b 3e c7 b3 21 be e0 cc 49 3e c4 96 23 be
       0.27200466 -0.15791236 0.1970706 -0.15975481
0000e0 31 f0 80 3d a8 0f 7f 3e d0 81 ab 3d d9 cf dc bc
       0.06295813 0.24908316 0.08374369 -0.026954578
0000f0 0a 18 5c bc f6 9c c0 bd 42 13 02 3e 90 2b 5b be
       -0.013433466 -0.09404938 0.12702659 -0.21403337
000100 4a cf 36 3e 0f 25 a4 bd 80 f8 28 3e 9e af 89 bd
       0.17852512 -0.08014881 0.16501045 -0.067229494
000110 fa c5 0a 3e b5 a1 7f be 92 da 3c be 7b e5 5e 3d
       0.13552085 -0.2496403 -0.18442753 0.05441807
000120 38 77 99 be eb f8 85 3e ef c6 05 3e 15 43 2b be
       -0.2997377 0.26166472 0.13064168 -0.16724809
000130 27 47 73 3e 9d d5 ae 3d 0d cb dd bd 93 fa 8e 3c
       0.23757611 0.08536837 -0.108297445 0.017453467
000140 4a 11 74 be ca c9 08 be 14 1f 46 3e 8e 3f 3b be
       -0.2383472 -0.13358226 0.19347793 -0.18285963
000150 e2 ff 9d bd 80 e3 f7 3d 90 78 33 be ba db 32 bc
       -0.077148214 0.12103939 -0.1752646 -0.010916645
000160 7c db 0b be 10 41 27 be 1b d4 9a 3e f9 e4 84 3e
       -0.13657945 -0.16333413 0.3023995 0.25955942
000170 53 88 9e be 5a 87 4a 3e 3a 77 2f be 94 07 49 3e
       -0.30963382 0.19778195 -0.17135325 0.19631797
000180 04 49 df bb 13 c5 72 bd c2 d7 8b 3e 47 2e 26 3e
       -0.006814124 -0.059269976 0.27313048 0.16228591

blocks.0.0.fn.1.keys.bias f4 [10]
000000 8e c1 13 3e 0e 1d 01 be 07 10 84 3e 39 6a fd 3d
       0.14429304 -0.1260874 0.25793478 0.12373776
000010 82 4b 9c bd 10 fb 99 be 38 5a 2a 3d bd cf 10 be
       -0.076315895 -0.30074358 0.041589946 -0.14141746
000020 0d 99 1a 3d 27 79 83 be
       0.037743617 -0.2567837

blocks.0.0.fn.1.queries.weight f4 [10, 10]
000000 0b f9 e7 bd db ae 92 3e 45 e0 5f be 14 6a 08 3e
       -0.11326798 0.2864903 -0.21862896 0.13321716
000010 7b 88 a9 3d a3 83 7e 3e ab 16 87 bc 83 98 01 be
       0.08277985 0.24854903 -0.016490301 -0.12655835
000020 49 fa a3 3d 6c 09 55 be 52 21 37 3e 4a 68 fa 3d
       0.080067225 -0.20804375 0.17883804 0.12226923
000030 08 f6 bf bd 3e 90 62 3d a8 a3 9f be dd e1 87 3d
       -0.093730986 0.05531334 -0.31179547 0.06634877
000040 48 50 2c be 55 40 24 bc 3f dc dd bd 26 1c 8a be
       -0.168275 -0.010025104 -0.10833024 -0.269746
000050 72 ae 84 be a5 53 38 be fa fe 98 be 57 85 5e be
       -0.2591434 -0.18000658 -0.29882032 -0.21730553
000060 94 3f 8a bb 1f 9a 34 be f7 7d 9c 3d 25 7b 7d 3e
       -0.004219005 -0.17636918 0.076412134 0.24754007
000070 d4 92 61 3e be 04 5b be 39 b5 35 bd 26 4d 12 3d
       0.22028667 -0.21388528 -0.04436228 0.035718106
000080 86 aa 47 be d2 f0 9f be b1 0b 7d bd 2f 22 9d 3e
       -0.19498643 -0.3123842 -0.061778728 0.30690143
000090 f1 c9 51 3e 9a de e4 3c 0f d4 54 be ab 34 80 bd
       0.20487191 0.027938176 -0.20784019 -0.062600456
0000a0 2a ec 1e 3e 6e e4 3a bd a0 00 86 be e5 55 44 3e
       0.15519777 -0.045628004 -0.26172352 0.19173391
0000b0 16 3c 01 3e 41 7f 80 3e 60 70 9a be 1b 4f 56 be
       0.12620577 0.25097087 -0.3016386 -0.20928614
0000c0 16 1e 87 be 43 e5 00 3c ae ce 15 be 2f 1a 6c 3e
       -0.2639014 0.00786716 -0.14629623 0.23056863
0000d0 4a e1 9f 3e 4f 5a 67 be 86 0c 82 be f7 62 62 3e
       0.3122657 -0.22593044 -0.2540018 0.22108065
0000e0 ba c9 16 bd cd 5f 1d 3e 25 27 33 bb c0 f7 3d 3e
       -0.036813475 0.15368576 -0.0027336564 0.1855154
0000f0 52 44 0b 3e 59 ee 26 3d 15 b8 51 3d 2c ee 13 3e
       0.13600281 0.04075465 0.051200945 0.14446324
000100 78 67 98 3e 4a 5b 54 3e 9b 8c 10 be d1 66 28 be
       0.2976644 0.20737949 -0.14116137 -0.16445471
000110 a4 b0 1a be 03 11 5f be be b0 11 3e 9f ab 92 3c
       -0.15106446 -0.21783833 0.14227578 0.017904101
000120 c3 6a 30 be e2 27 04 be 12 5f 67 be d7 c2 9b 3d
       -0.17228226 -0.12905839 -0.2259486 0.07605522
000130 fe 0c 93 3e 08 41 2c be 2e 12 d1 bd 4d 25 6c be
       0.2872085 -0.16821682 -0.102085456 -0.23061104
000140 8d 31 58 bc 96 f0 c4 bd ea 2a 98 3c 1d be 97 be
       -0.013195408 -0.096162006 0.01857515 -0.29637232
000150 f4 67 2b 3e 39 7a 14 bd 24 c5 0e be 4e 80 92 be
       0.16738874 -0.036249373 -0.1394239 -0.28613514
000160 8f 32 43 3e f4 a9 f5 3c 64 ff 1d 3e f6 2b 87 be
       0.19062255 0.029988267 0.15429455 -0.26400727
000170 c5 11 13 be fa 35 db bd f2 ef 9c 3d 60 4f 7d 3e
       -0.14362247 -0.107036546 0.076629534 0.2473731
000180 5a 8a 2e bd c7 ca fe bd bc 03 90 be 0d 5c 21 be
       -0.04261241 -0.124410205 -0.2812785 -0.15757771

blocks.0.0.fn.1.queries.bias f4 [10]
000000 84 a3 8c 3e 23 1c 9e 3e bb 97 3e 3d 0d 3d 91 3d
       0.27468503 0.30880842 0.04653142 0.07091723
000010 99 22 19 bc c3 dc 8f be 38 ba 84 3d 77 d8 f6 bd
       -0.009346628 -0.28098115 0.06480831 -0.12053006
000020 c6 5a 0d be 6b 5b d6 bd
       -0.13804159 -0.10466655

blocks.0.0.fn.1.values.weight f4 [10, 10]
000000 4e 59 53 3b fe 9a 68 bd 6a d8 67 be ba f0 51 bd
       0.0032249275 -0.056788437 -0.22641149 -0.051254965
000010 d4 a7 46 3d b4 8d 40 3e 3e e4 5c 3d 1d f7 e8 3d
       0.048499897 0.18804055 0.053928606 0.11375258
000020 89 d1 83 3d d7 a4 95 3d 72 b6 81 3a 60 30 91 be
       0.0643645 0.07306831 0.0009896292 -0.2835722
000030 ed b7 11 bd b6 ee 97 bd 2b 61 66 be 17 b0 89 bc
       -0.035575796 -0.074185774 -0.22498004 -0.016807599
000040 53 5a 58 be c5 28 7c 3e c3 a9 87 be bf 53 c2 bd
       -0.21128206 0.24624927 -0.26496705 -0.094886295
000050 7d fc 1e 3d cb 3e 58 be 90 ab 76 bd ba 9f 8b 3e
       0.03881501 -0.21117704 -0.06022221 0.272703
000060 71 86 94 be e5 2e e7 bd 38 ed 6b 3e 2a fc ed 3d
       -0.2900882 -0.11288241 0.2303971 0.11620362
000070 ef 8b 48 3d 75 b1 87 3e 12 e9 c3 3d fc b2 9d 3e
       0.048961576 0.26502576 0.09565939 0.30800617
000080 69 fa 87 be d3 a6 7a 3e d6 20 32 3c 2c c3 58 bc
       -0.26558235 0.24477701 0.0108720865 -0.013230126
000090 9a ae 62 3e 13 97 6f be 36 76 99 3e 5a 5e 80 be
       0.22136918 -0.23397474 0.29973 -0.25071985
0000a0 1e 66 ba 3d 9f 36 20 3e 8b 09 aa 3c 80 96 a1 be
       0.091015086 0.15645836 0.020756504 -0.31560135
0000b0 ca 74 55 3e 21 f7 d1 ba b7 a1 92 3e 63 07 5d 3e
       0.20845333 -0.0016019085 0.28639004 0.21584849
0000c0 c0 c9 8c 3e 90 58 2f be 9c f1 7d 3e d6 53 7e 3e
       0.27497673 -0.17123628 0.24799198 0.24836668
0000d0 e0 ab dc 3d cf 05 87 be 5f 19 57 be 3b de 4e bd
       0.1077497 -0.2637162 -0.21005772 -0.050504904
0000e0 6b a5 9e be 79 a3 c8 bd 5f 24 95 bd 08 b4 6b be
       -0.3098558 -0.09796805 -0.07282328 -0.23017895
0000f0 df c1 15 bc bd 5a eb 3d 18 b0 30 3e cb e3 85 3e
       -0.009140461 0.11491916 0.17254674 0.26150355
000100 e6 19 f9 3d cc 5f 7e 3d 4a 5d 96 be e6 59 0e be
       0.12163143 0.062103078 -0.2936805 -0.13901481
000110 1c 37 91 be b6 91 8a be 47 7f 92 3e 0c 7f 40 3e
       -0.28362358 -0.27064294 0.2861273 0.18798465
000120 b6 a4 32 3e b1 f0 92 be 4a d8 0c 3c df eb 2d be
       0.17445645 -0.28699258 0.008596489 -0.16984509
000130 2a 60 e3 3d 73 b7 71 3a 2f 25 9f 3d a5 e4 50 3c
       0.11102326 0.00092207565 0.07770764 0.012749826
000140 b9 15 91 be 6d 9b 94 be 38 e1 d2 bd 81 11 98 3e
       -0.28336886 -0.2902483 -0.10296863 0.29700854
000150 ef 14 60 be 7a e5 13 3e c7 fc 68 be 87 bf 45 3e
       -0.21882986 0.14443007 -0.22752677 0.19311343
000160 f7 84 e3 3d e4 22 02 be 70 68 58 3e 02 77 9f 3e
       0.111093454 -0.12708622 0.2113359 0.31145483
000170 fd f3 8b be 33 a2 62 3e c3 9a f6 3c 0b 6a c9 bc
       -0.27334586 0.22132187 0.030103093 -0.024586698
000180 31 8a 4e 3e 2c 91 18 3e 29 44 cd 3d 7d 43 86 be
       0.20169903 0.14899129 0.10022766 -0.26223364

blocks.0.0.fn.1.values.bias f4 [10]
000000 7b 4e 3a be 75 83 77 be 91 e0 ec bd ce 7a 1f 3e
       -0.18194 -0.2417124 -0.1156627 0.1557419
000010 f6 9e 54 be c5 6e 8a be 30 59 84 3e 90 c4 69 be
       -0.20763764 -0.27037635 0.25849295 -0.22828889
000020 b9 aa 2c be 9e 6d 3f 3d
       -0.16862 0.0467354

blocks.0.0.fn.1.projection.weight f4 [10, 10]
000000 ed 47 8e 3d 6e 21 d9 bd 82 b4 a1 bc bd 99 8d be
       0.069473125 -0.10602079 -0.019739393 -0.27656356
000010 9d 27 a1 3e b4 87 8b be e4 49 89 3d ab e0 90 be
       0.31475535 -0.2725197 0.06703547 -0.28296408
000020 7c 91 3b 3e 50 ed 3b be 4d 53 9d be 03 f2 61 3c
       0.18317217 -0.18352246 -0.30727616 0.01379061
000030 46 82 9e 3e 72 50 8f 3e 03 99 ee bd 5f f1 94 3e
       0.30958766 0.27991062 -0.116502784 0.29090402
000040 70 c5 8a 3e 9b cf 92 be ac ff 04 be 91 0e 4e be
       0.27103758 -0.28674015 -0.12988156 -0.20122744
000050 e4 d2 ec bd ce 9e c1 3c cc 98 63 3e 89 20 90 3e
       -0.11563662 0.023635294 0.22226256 0.28149822
000060 19 41 0d 3e 4d 1d 19 3d 59 28 8b 3e db 5c a5 bc
       0.13794364 0.03738146 0.2717922 -0.020185879
000070 11 c6 e3 bd d2 d4 21 3e f5 1b e3 bd e4 8f 81 be
       -0.111217625 0.15803841 -0.11089317 -0.25305092
000080 cb 9c 92 3e 77 90 4c be 34 fe f7 3c bf c7 21 3e
       0.2863525 -0.19976984 0.03027258 0.15798853
000090 02 09 83 be 43 48 0b bc 30 d8 91 3e 96 36 4f be
       -0.2559281 -0.008501115 0.2848525 -0.20235667
0000a0 c1 c8 8f 3e b8 ad c3 3c 93 66 b7 3c f2 0d 8e 3e
       0.2808285 0.023886546 0.022387778 0.27745014
0000b0 85 f1 5b be de fc 2d 3e 20 64 ce bc 2b 9b 83 3e
       -0.21478851 0.16990992 -0.025194228 0.2570432
0000c0 29 58 fd 3d 98 66 24 3c b0 32 d0 bc e5 4a 27 be
       0.12370331 0.010034226 -0.025414795 -0.16337164
0000d0 87 1d 09 be 75 4d 43 be b1 05 c1 3d 96 4e 65 3d
       -0.1339017 -0.19072516 0.09424914 0.05598315
0000e0 de 4b 62 be d6 2f 85 3c 47 07 65 3d 1e b0 8c 3e
       -0.22099254 0.016258162 0.055915143 0.27478117
0000f0 cc 06 51 3b 5d e6 16 be 71 d1 4e be 32 20 3e bc
       0.003189492 -0.14736314 -0.20197083 -0.011604356
000100 96 b1 ef bd 30 3f 23 be 47 6f 10 3e 7e 2a c4 bd
       -0.11703794 -0.15942073 0.14104949 -0.09578417
000110 79 bd 52 3e 9e bd 07 be ae 30 9e be f7 d4 af bd
       0.2058009 -0.13255927 -0.30896515 -0.08585542
000120 7a 4e 9b 3e e0 7e 21 be f1 c4 70 be d8 48 13 be
       0.3033331 -0.15771055 -0.23512627 -0.14383256
000130 29 22 89 be 8a 0b e1 bd ac 15 91 be 3c 5a fd bc
       -0.26783875 -0.10988529 -0.28336847 -0.030926816
000140 f4 d9 bd 3d 2b 2f 89 be e1 66 92 3e a9 ef 27 be
       0.09270087 -0.267938 0.28594115 -0.16400017
000150 cf 98 55 be 08 79 6a 3e 1d 60 29 3e ab 74 36 3e
       -0.20859073 0.22897732 0.1654057 0.17817943
000160 7e 8c bc bd 25 89 a4 3c 17 34 84 be 8d 1e 74 be
       -0.09206484 0.020084927 -0.2582099 -0.23839779
000170 9d 99 25 bd 52 d1 8a be f3 c9 34 3d 53 61 42 be
       -0.0404297 -0.27112824 0.044137906 -0.18982439
000180 b3 3b 9b be 95 82 81 3c 46 32 90 3d 32 a3 62 3e
       -0.30318984 0.015809337 0.07040839 0.22132567

blocks.0.0.fn.1.projection.bias f4 [10]
000000 a7 f3 0f be 87 df 90 be 65 0a 5e be 32 b4 4d 3e
       -0.1405779 -0.28295538 -0.21683653 0.2008827
000010 54 a3 22 be 7f 2e 5e 3e ff c4 15 3e b6 ce 4c 3e
       -0.15882617 0.21697424 0.1462593 0.20000729
000020 ea 33 10 3e 8f a0 9c 3e
       0.14082304 0.30591246

blocks.0.1.fn.0.weight f4 [10]
000000 00 00 80 3f 00 00 80 3f 00 00 80 3f 00 00 80 3f
       1.0 1.0 1.0 1.0
000010 00 00 80 3f 00 00 80 3f 00 00 80 3f 00 00 80 3f
       1.0 1.0 1.0 1.0
000020 00 00 80 3f 00 00 80 3f
       1.0 1.0

blocks.0.1.fn.0.bias f4 [10]
000000 00 00 00 00 00 00 00 00 00 00 00 00 00 00 00 00
       0.0 0.0 0.0 0.0
000010 00 00 00 00 00 00 00 00 00 00 00 00 00 00 00 00
       0.0 0.0 0.0 0.0
000020 00 00 00 00 00 00 00 00
       0.0 0.0

blocks.0.1.fn.1.0.weight f4 [40, 10]
000000 a7 f8 2c be a1 ea 8a 3e 39 47 cd bd b4 ed 49 3e
       -0.16891728 0.27132133 -0.1002335 0.19719583
000010 ef a7 fe 3b 06 98 99 3e 02 1e 35 3e c1 ac ba 3d
       0.007771484 0.29998797 0.17687228 0.091149814
000020 fe ae 94 3c 98 34 f8 bc aa c0 86 be d0 c9 7b 3c
       0.018149849 -0.030298516 -0.26318866 0.01536794
000030 f7 d2 8e bd fb 22 de 3d f7 b7 3c be 16 3e a2 3d
       -0.06973832 0.10846516 -0.18429552 0.07921998
000040 24 40 4f bd 38 59 ef bd 98 aa af bc 06 bf 01 be
       -0.05059828 -0.11686939 -0.02144365 -0.12670526
000050 06 3a 96 3e b9 d6 40 3e 2a 82 97 bd 31 d4 83 be
       0.29341143 0.1883191 -0.07397874 -0.25747827
000060 b0 b5 b0 3d 63 c6 97 3e 6a 68 1e 3c fb 27 c7 3d
       0.08628404 0.29643545 0.009668449 0.097244225
000070 02 89 8e 3d 17 ec 97 3e c4 67 10 be eb a3 60 3e
       0.06959726 0.2967231 -0.14102083 0.2193753
000080 d0 25 55 3e 9b 21 5c 3e 75 cb 7c be 27 63 8d 3d
       0.20815206 0.21497194 -0.24686988 0.069036774
000090 16 8e ce bd ca 44 9e be 6c 73 14 3d b9 ce 90 be
       -0.100856945 -0.30911857 0.036242887 -0.28282717
0000a0 b8 37 6f bd 73 09 06 3e a7 da 85 be 1e 82 69 be
       -0.058402747 0.13089542 -0.2614338 -0.22803542
0000b0 8f 6f d6 3d 3d ae 54 be 4b fb 36 3e e3 bc 1e 3d
       0.10470497 -0.20769592 0.17869298 0.038754355
0000c0 9e 6b 36 3e 32 76 4d be d6 b4 da bc eb 32 8c 3e
       0.1781449 -0.20064619 -0.026697557 0.27382597
0000d0 42 eb a0 be f8 ba 8c be 3f 91 f8 3b 5a 1a 5a 3e
       -0.31429487 -0.27486396 0.007585674 0.21299115
0000e0 8a cc a0 be a7 18 b2 bd 02 29 25 be 55 b8 8e 3e
       -0.3140605 -0.08696108 -0.16128924 0.2787501
0000f0 0a f9 8c 3e 18 7a 2c 3c 46 bb 83 3e d3 3f 52 be
       0.27533752 0.010527156 0.25728816 -0.2053216
000100 d0 d8 a1 3e 1b 0f e9 3d 38 31 2a be 40 e3 1c be
       0.31610727 0.11379834 -0.16620338 -0.15321064
000110 c9 35 b2 bc d1 44 59 3e 20 f9 67 3d d6 9f 9b be
       -0.021754162 0.21217658 0.05663407 -0.30395383
000120 dc da 9c 3d 3f 94 05 3e e4 14 ee 3d 2d ca 14 3e
       0.076589316 0.13044833 0.11625078 0.14530249
000130 9b e0 6f 3e 10 62 28 3e 61 8d 25 3e b0 5f ac 3a
       0.23425524 0.16443658 0.16167213 0.0013151076
000140 c1 48 33 3e e0 6c 33 3e 86 83 89 3e e2 c3 94 3e
       0.17508222 0.17522001 0.26858157 0.29055697
000150 a3 0e 9a be b2 41 8d be d4 57 74 3d 76 bd 2e 3e
       -0.30089292 -0.27589184 0.059654072 0.17064461
000160 0d c3 14 be 23 2e 64 be 62 98 85 be 54 2f 92 3e
       -0.14527531 -0.22283225 -0.2609282 0.28551733
000170 54 be 34 bd 0c 82 94 3e 65 5e 8e 3d a1 16 86 3e
       -0.044126824 0.29005468 0.06951598 0.2618914
000180 3d 83 45 be e1 eb 86 bd 3b 67 1b be 82 0b df bc
       -0.19288345 -0.06587959 -0.15176098 -0.027227167
000190 97 82 2a 3e ab 67 15 3d 98 77 c1 3b 04 45 8b 3e
       0.16651379 0.03647582 0.0059041493 0.27201092
0001a0 47 3a 45 3e 5c 3d 96 be ca e8 3f 3d bb ab 8b be
       0.19260512 -0.29343688 0.046852864 -0.27279457
0001b0 64 0d 7d bd 7d be 6b be 09 c1 7e 3e af 01 7d be
       -0.06178035 -0.23021884 0.24878325 -0.24707673
0001c0 58 61 52 bd c9 99 61 3d e8 0e 9b 3e 56 ac a3 bd
       -0.051362365 0.0550783 0.3028481 -0.07991855
0001d0 53 69 11 3e 44 8f 89 be ba 51 16 be 76 39 9a be
       0.14200334 -0.26867115 -0.14679614 -0.30121964
0001e0 a8 5c 3b 3e 4a 7e ad bd 4d b7 5c 3d 87 a6 87 3e
       0.18297064 -0.08471353 0.053885747 0.26494238
0001f0 c9 42 84 3d e0 09 8a be 58 c0 f1 bd 54 06 06 be
       0.06458051 -0.2696066 -0.11804265 -0.13088351
000200 d0 c3 a1 3e 71 93 80 3e c9 11 9a be d9 bf 99 3e
       0.31594706 0.2511249 -0.30091694 0.3002918
000210 86 3c dc bd 91 00 0b 3e ad c2 92 3e 85 6a 96 bd
       -0.107537314 0.13574435 0.2866415 -0.07344536
000220 72 2e 46 3e d7 a3 86 3e e4 c6 52 bd 25 d9 8c 3e
       0.19353655 0.26296875 -0.051459208 0.27509418
000230 70 33 1e 3e 78 56 21 3d 14 f7 32 bd bc 58 7a 3d
       0.1544931 0.039389104 -0.043692663 0.06111978
000240 21 d8 6e 3e aa 59 ea bd 16 77 4f 3b cd c6 36 3e
       0.23324634 -0.11442883 0.0031656674 0.17849274
000250 d6 3d 45 3e 16 76 0b 3e cd 96 81 bd fc 87 2a be
       0.1926187 0.13619265 -0.06327591 -0.16653436
000260 95 90 4c 3e 4d 32 5b 3c ba 65 63 3e 1c fa 6d 3d
       0.19977029 0.013378692 0.22206774 0.05809985
000270 40 e7 61 3e 0f 7e 65 3d ce a8 17 be 5e 5f f2 3c
       0.22060871 0.056028422 -0.14810488 0.02958649
000280 52 3c 84 3e 77 86 f3 3d e1 5f 9e bb 95 fe 54 be
       0.2582727 0.118908815 -0.004833207 -0.2080024
000290 91 8c 9a be 3e dc d3 3d 60 90 24 3d 20 07 16 3c
       -0.3018537 0.10344742 0.04017675 0.009156972
0002a0 fa 3c 9d be 7d f2 b1 3d 54 60 d4 3d 86 b8 bf 3c
       -0.30710584 0.08688829 0.10369936 0.023403417
0002b0 9d 7c 63 be 81 6b cf 3d b3 cd a0 3d 91 2b 79 3e
       -0.22215505 0.101279266 0.07851734 0.24333026
0002c0 b6 d0 0c 3e 16 dc a3 3c 6f 3b 85 3e b2 00 98 be
       0.13751492 0.020002406 0.26021907 -0.2968803
0002d0 21 88 43 be da 86 5e bc a6 e0 31 3e a3 a0 55 be
       -0.19094898 -0.013581956 0.17370853 -0.2086206
0002e0 8d 0e 28 3d 3c c6 83 be 55 3e 71 bc f7 42 d5 bd
       0.0410295 -0.25737178 -0.014724334 -0.10413163
0002f0 ea 24 c0 3b 5d 18 65 be 16 7a 2e 3e bb 2c 35 3e
       0.0058637755 -0.22372575 0.1703876 0.17692845
000300 f2 8c 84 3e f0 ec 9b 3d 97 23 e7 3b 8b 63 89 3d
       0.25888783 0.076135516 0.007053803 0.067084394
000310 6e fa 9f be 8e 01 8f 3e c8 fa 85 3e 9c c3 7f 3e
       -0.3124575 0.27930874 0.26167893 0.24976963
000320 f8 ed 7c 3e 46 73 e9 bd 13 28 ea 3d c7 1f a1 3e
       0.24700153 -0.1139894 0.11433425 0.31469557
000330 4b 38 3d 3e 42 a5 82 3e b2 a1 88 bd 92 d6 96 bd
       0.18478505 0.25516707 -0.06671466 -0.07365145
000340 cd de 0a bd 2c 4c eb 3d 98 2e 19 be 63 42 41 3e
       -0.033903886 0.11489138 -0.1495918 0.18872981
000350 15 67 8d be b3 0d b8 3c b3 20 97 3e 33 9a 37 3d
       -0.27617708 0.02246747 0.29517135 0.04482479
000360 02 14 59 bd ef ee 2b 3e bd a3 33 3d 10 73 94 be
       -0.052997597 0.16790365 0.043857325 -0.28994036
000370 b2 fb 89 be 38 ff 81 be 44 30 11 bd a8 b5 62 be
       -0.2694984 -0.2539003 -0.03544642 -0.22139609
000380 bc a9 88 3e 7e ba b7 3d be bf a9 bd 48 53 40 bd
       0.26691997 0.089711174 -0.08288525 -0.046954423
000390 c3 ef 9e bc 66 91 3b be 85 69 79 3e dd 6c 43 3e
       -0.019401437 -0.18317184 0.24356659 0.19084497
0003a0 db a5 3a bc c8 a0 0c 3e c8 7b 31 be 2e 5d 09 3e
       -0.011392082 0.13733208 -0.17332375 0.13414451
0003b0 84 64 83 3a fe eb 9b be 05 44 90 be d2 02 35 3e
       0.0010024463 -0.30453485 -0.28176895 0.17676857
0003c0 03 30 35 3e ec c9 ed 3d 67 e5 87 be 0a 2e dc 3d
       0.17694096 0.11610779 -0.26542208 0.10750969
0003d0 27 54 f1 bc bc ba 9f be d5 d6 6c 3e 4a b1 10 3e
       -0.029459072 -0.31197155 0.23128827 0.1413013
0003e0 32 c8 8b 3d 69 d6 dc bc ae a8 91 be 7a 2b f7 bd
       0.068252936 -0.026957707 -0.28449005 -0.12068839
0003f0 b2 a2 8c be 1c 34 60 3e 8c e3 23 be 16 38 85 3e
       -0.27467877 0.21894878 -0.16004771 0.26019353

blocks.0.1.fn.1.0.bias f4 [40]
000000 70 30 9a 3d e8 46 85 3e 03 54 13 3e 6f 19 b4 bd
       0.0752877 0.2603066 0.14387517 -0.087939136
000010 78 0f 35 be 11 e7 83 be cc 82 f1 3c c1 10 72 be
       -0.17681682 -0.25762227 0.029481314 -0.23639204
000020 4e 8c 81 3e 06 86 83 3e 49 bc 04 be 7a 4c 49 3a
       0.25302356 0.2568819 -0.1296245 0.00076789374
000030 b0 87 df bd 33 c5 7d 3d cf 27 7a 3e 4d d8 6b 3d
       -0.10914552 0.061955642 0.24429248 0.057579327
000040 92 4f 95 3e 0b b1 74 be 00 00 16 be 31 ef 1b be
       0.2916227 -0.23895662 -0.14648438 -0.15227963
000050 ea 52 1b bd 70 96 01 be 7d c3 63 3e 0c ce 8d 3e
       -0.03792087 -0.12655044 0.22242542 0.27696264
000060 5a 74 04 3d c8 02 1b 3e e9 94 0f 3e 29 aa 63 3e
       0.032337524 0.1513778 0.14021648 0.2223288
000070 bc 16 95 bd 3b 32 7e be 2f e0 7e 3d 39 65 46 be
       -0.07279727 -0.24823849 0.062225517 -0.19374551
000080 58 1c 9a be 7c fd 47 3e 49 4b ef bd 72 ce 4c bd
       -0.3009975 0.1953029 -0.116842814 -0.05000157
000090 db 6c 80 3d de ce 7c be 0f 2f 83 3e a2 fb 52 be
       0.062707625 -0.24688289 0.2562184 -0.20603803

blocks.0.1.fn.1.3.weight f4 [10, 40]
000000 69 5b c8 3d 48 58 57 3d 44 72 1f 3e 21 68 f8 3d
       0.0978306 0.052574426 0.15570933 0.12129236
000010 3d 13 f4 3d 15 f5 e9 3d a1 f6 94 3d d7 eb 33 bb
       0.11917732 0.11423699 0.07273603 -0.0027453804
000020 dc fb 75 3c 69 34 4d bd 99 8d 9d bd 2d 43 17 3e
       0.015013661 -0.05009881 -0.07693023 0.1477172
000030 25 3d 14 3e 54 78 13 3e 8a 18 70 bd 58 65 7a bc
       0.1447645 0.1440137 -0.058617152 -0.015282951
000040 90 3a 91 3d 00 96 de bd 4f ea 10 3e d6 be 99 3d
       0.07091248 -0.10868454 0.14151882 0.07507102
000050 86 5b 74 3d 2a 2f 8f 3d ec df ff 3d b3 47 ec bd
       0.059657596 0.06991418 0.124938816 -0.11537113
000060 c0 87 56 3d 54 05 8e 3d ab 41 53 bd d9 11 1a 3e
       0.052375555 0.0693461 -0.051576298 0.15045871
000070 99 be 60 bd 0d 6c d9 bd ac 81 db bc 5b 88 72 bd
       -0.054869268 -0.10616312 -0.02679523 -0.05921207
000080 65 59 1a 3e 26 5e 06 bd 3b a9 11 be c0 f7 e4 3d
       0.15073164 -0.03280463 -0.14224713 0.11180067
000090 ab a7 d9 bd 26 92 1b 3e 96 26 85 3c 1c 6b 4c bd
       -0.10627683 0.1519247 0.01625375 -0.049906835
0000a0 72 aa 97 3d aa bb 3b bd ec 8f 37 3d 73 5f 07 be
       0.07405557 -0.045833267 0.04481499 -0.13220005
0000b0 5c 01 f1 bd 59 f7 07 be 77 6f 74 3d 85 08 78 3d
       -0.117678374 -0.1327795 0.059676614 0.060555
0000c0 19 73 f8 3d ea c8 9c 3d 2e 22 ee 3d a6 e7 46 bd
       0.12131328 0.07655509 0.11627613 -0.04856076
0000d0 b8 86 5c bd 2c ab 3a bd 1e 62 bf bc 5f ed d5 3d
       -0.053839415 -0.0455734 -0.023362216 0.104456656
0000e0 c9 99 fe bc 29 3b 32 bd 74 b2 1e bd 02 2e d7 bc
       -0.03107919 -0.04351345 -0.038744405 -0.026267055
0000f0 a2 c2 40 bc 5c 7a f3 3d b9 8c 5b 3d c1 86 4e bd
       -0.011765154 0.118885726 0.053601 -0.05042148
000100 b6 2d 8a 3b a3 fc 0a be 69 a0 3b 3d 00 40 a5 3c
       0.004216875 -0.13572936 0.045807276 0.02017212
000110 f6 13 f1 bb bf e3 14 3e 6e 1b af bd 4c 1c 1d bd
       -0.007357116 0.14540003 -0.08550154 -0.038357064
000120 34 b8 6e 3d d4 3e 07 3c b9 74 13 be 01 92 f9 3d
       0.05828114 0.0082547255 -0.14399995 0.12186051
000130 63 f2 01 be 6f 83 f0 bd a6 d3 43 bd bf 1f d7 bd
       -0.1269012 -0.11743819 -0.047809266 -0.10504102
000140 2b 49 02 3e f9 59 b7 3d cc 2d 17 be fd 63 d8 bb
       0.12723224 0.08952708 -0.14763564 -0.0066037164
000150 81 3e cb 3d 48 e1 19 be 1a d5 1b 3e 60 72 0d be
       0.09924031 -0.15027344 0.1521801 -0.13813162
000160 4d 95 09 3e e0 9f 17 be cd b6 19 be 1a a8 b7 bd
       0.1343586 -0.14807081 -0.15011139 -0.0896761
000170 a3 77 62 3d 74 24 1b 3e 63 43 f5 3d 7c 7c 9c 3d
       0.055289876 0.15150625 0.119757436 0.07640931
000180 7d d6 82 bd 11 5b 1a 3e 4d 38 bb 3d b5 1b 0e 3e
       -0.06388567 0.15073802 0.09141598 0.13877757
000190 34 a7 8f 3d 25 04 14 3e c4 5b 6b 3d a7 ad ab 3d
       0.07014313 0.14454706 0.05746056 0.08382731
0001a0 e0 80 fd bd 4b 25 d4 bd 5e 6f aa 3c 39 ed 20 bd
       -0.123780966 -0.103586756 0.020805057 -0.039288733
0001b0 ea b9 8b bd 09 39 2d 3d 80 c7 bc 3d 1e 57 80 bd
       -0.0682257 0.04229072 0.09217739 -0.06266616
0001c0 22 d4 88 3d a4 0c 46 bd 20 bf 0b bd c3 b2 23 3d
       0.06681086 -0.0483519 -0.034117818 0.039965402
0001d0 d9 12 18 be c5 e0 1e be e4 a5 89 3c 96 5b 71 3c
       -0.1485094 -0.1551543 0.016802736 0.014731308
0001e0 68 12 dc bd ec 92 ba bc 2c 1f 9b bd f7 31 8e 3c
       -0.10745698 -0.022775136 -0.07574305 0.01735781
0001f0 02 3c f5 3d b5 73 76 3d 0a 31 dd 3d 36 35 cc bd
       0.11974336 0.06016894 0.10800369 -0.09971087
000200 1f 81 a1 3c 72 66 2c bd 5c ad d9 bd 11 a8 16 bd
       0.01971489 -0.042089887 -0.10628769 -0.036781374
000210 5e b8 79 bc 3f d5 0c 3d 7a 5d a6 3c 87 83 8d 3d
       -0.0152417105 0.034383055 0.020308245 0.069098525
000220 b7 30 b5 bd 9f 27 2d bc 2e 97 28 3d 92 26 63 3d
       -0.08847182 -0.010568528 0.0411598 0.055456705
000230 08 43 16 be ea 8a 50 bd 97 b0 10 3d 3c d4 82 bc
       -0.14674008 -0.05091373 0.03532466 -0.015970342
000240 50 a0 14 3e 99 5e d4 bd 28 8c 84 3d 91 46 fe 3d
       0.1451428 -0.103696056 0.06472045 0.12415803
000250 c3 59 a3 3c 10 b9 21 be af 88 19 3e 46 74 75 3c
       0.019940263 -0.15793252 0.14993547 0.014981335
000260 8d 58 92 bd b2 6f e9 3d 48 15 b2 bd 42 c1 b0 3d
       -0.07145796 0.11398257 -0.08695465 0.08630611
000270 d6 76 83 bd f5 72 79 3d 05 9b 4c 3b b2 43 b8 bc
       -0.064191505 0.060900647 0.0031220329 -0.022493217
000280 ed e2 33 bd c1 45 05 be 8c 78 f7 3d ac 81 fe 3d
       -0.043917585 -0.1301489 0.12083539 0.12427077
000290 37 9b 5f 3d 43 02 f6 bc a8 59 02 3d 04 1c 56 3d
       0.054591384 -0.030030375 0.031823784 0.05227281
0002a0 23 6c 8f bd b9 a8 14 be bb 0d b8 bd 52 82 bf bd
       -0.07003047 -0.14517488 -0.08986994 -0.093510285
0002b0 56 29 c9 3d 32 09 b5 bd f6 c9 f6 bd 5c 4e 1b 3e
       0.09822337 -0.088396445 -0.1205024 0.1516661
0002c0 b3 67 c4 3d 16 a2 02 be 3e 22 6d 3b 0f 3a 21 3e
       0.095900916 -0.12757143 0.003618374 0.15744804
0002d0 5e 1e db 3d 7c f9 b6 3d 60 3d 12 3e af 96 1f 3e
       0.106991515 0.08934304 0.14281225 0.15584825
0002e0 6e d0 61 3d f7 b7 6e bd 32 b4 0d 3e 26 83 a3 3c
       0.055130415 -0.05828091 0.1383827 0.019959997
0002f0 76 56 d8 3d 00 9c 78 3b ad 8e e1 bd 26 22 d4 3c
       0.10563366 0.003793478 -0.11013541 0.02589519
000300 d5 d2 c4 bd 01 a0 3d bd 8b 28 2f 3c 95 e3 c4 bc
       -0.096105255 -0.04629517 0.010690819 -0.0240343
000310 63 af ce bd 98 b7 ea 3d c6 fd 0e 3e eb a4 c5 bb
       -0.10092046 0.11460799 0.13963994 -0.0060316226
000320 f3 b0 21 3a b7 36 56 3d 4c a7 d8 3d be 3e a4 bd
       0.000616803 0.052298274 0.10578784 -0.080197796
000330 2b 89 88 3c b7 cf 5a 3d ed 03 b0 bd 0c f5 96 bd
       0.01666697 0.05342075 -0.08594499 -0.07370958
000340 7f 09 21 3e 29 91 6d 3d c1 27 73 3d c2 a7 07 3e
       0.15726279 0.057999764 0.059364084 0.13247588
000350 43 05 14 3e e2 74 9a 3d 49 95 f1 3d e9 68 2e 3d
       0.14455132 0.07541825 0.11796052 0.04258052
000360 70 34 90 bd 5e 69 55 bd 26 05 b9 3d 62 3b 89 3d
       -0.07041252 -0.05210244 0.09034185 0.067007795
000370 d0 3b 02 3d 71 4a 03 be ef 18 36 3d c5 ff 94 bd
       0.031795323 -0.12821366 0.044457372 -0.07275347
000380 e3 b9 55 bd 7b 9d 14 3e 53 e1 ae bd b6 63 c6 3d
       -0.05217923 0.14513199 -0.08539071 0.09686987
000390 67 2d f2 3d e8 a8 d8 3d d3 63 cd b7 ad 41 fb 3d
       0.11825066 0.10579091 -2.4484389e-05 0.12268386
0003a0 28 dc 89 3d 0a 4c d4 3d c0 35 0c 3c cc 92 69 bc
       0.067314446 0.10366066 0.008557737 -0.0142561905
0003b0 1e 6d b7 bd a9 01 2e bd 50 55 29 bd f9 db ef bd
       -0.08956359 -0.042482052 -0.041341126 -0.11711878
0003c0 ce b9 02 3e c3 67 ac 3d 41 88 78 bd 61 f6 94 3b
       0.12766191 0.084182285 -0.060676817 0.004545972
0003d0 1a 7c 02 be ad 9a 2b 3b 29 cb 35 bd be 5e a6 bd
       -0.12742653 0.0026184723 -0.0443832 -0.081235394
0003e0 30 df eb bd 1d 8b 0a be b4 09 d6 bd 0a c1 f2 3c
       -0.11517179 -0.1352963 -0.104510695 0.029633064
0003f0 62 ed 04 be 06 9f 41 bd a2 be ec 3d db 17 bb 3d
       -0.1298118 -0.047270797 0.11559798 0.091354094

blocks.0.1.fn.1.3.bias f4 [10]
000000 d9 8e cd bd 5a 61 6a bd 74 d6 15 be d4 3f f8 bd
       -0.10037012 -0.057221748 -0.14632589 -0.12121549
000010 76 b2 e0 ba 00 99 b5 bd c6 8d 10 be b7 ff dc 3c
       -0.0017143029 -0.08867073 -0.14116582 0.026977403
000020 1d 10 f9 3d 13 72 fa 3d
       0.121612765 0.12228789

blocks.1.0.fn.0.weight f4 [10]
000000 00 00 80 3f 00 00 80 3f 00 00 80 3f 00 00 80 3f
       1.0 1.0 1.0 1.0
000010 00 00 80 3f 00 00 80 3f 00 00 80 3f 00 00 80 3f
       1.0 1.0 1.0 1.0
000020 00 00 80 3f 00 00 80 3f
       1.0 1.0

blocks.1.0.fn.0.bias f4 [10]
000000 00 00 00 00 00 00 00 00 00 00 00 00 00 00 00 00
       0.0 0.0 0.0 0.0
000010 00 00 00 00 00 00 00 00 00 00 00 00 00 00 00 00
       0.0 0.0 0.0 0.0
000020 00 00 00 00 00 00 00 00
       0.0 0.0
