Notebooks/Encoder_evaluation/gan_dict.pth (torch, 685769 bytes, 108 tensors)

pos_embed f4 [1, 60, 10]
00000000: 95ca 60bd 0c3f a13c ffb1 71bd 2b79 d03c
00000010: 3e84 e2bd a6e8 3dbd 07b2 6b3d fd8f a03d
00000020: dae4 c8bd 0f14 69bd f66f 953c ad57 3bbd
00000030: a4fe 03bd 6a35 83bd ab72 dbbb 55ef 443d
00000040: 0819 04bd 0675 8c3d 932f 35bd 476a 153e
00000050: cab3 883c 6995 113d eace b13c f7f1 b5bd
00000060: e95c c03c 0989 133d 0dd2 513a 23ae 283d
00000070: 6df3 bbbc 7ba9 713d 7657 983d 453f a83d
00000080: c7fc 55bd 5b07 6bbd 6447 823d dd95 413d
00000090: 9cdf 4f3d fb10 8e3d 5b08 453b 6e17 403e
000000a0: a754 ce3b 3bf8 803d 0ee4 69bd b219 9739
000000b0: 84ab 4bbd b2fb 37bd f524 ed3c 4b5d 773c
000000c0: 5955 3fbd 0ae5 183c e2ac e43d 8cad d63d
000000d0: 433b 763d 6538 fb3c 907b 273d 59ed c43d
000000e0: d412 973b 967a 2d3d 0b21 76bd fa01 01ba
000000f0: 897e 1dbd 6d05 703c 5525 bc3d e05c ef3b
00000100: e7a4 56bd 7fc7 023d e76a 213c 96df 053e
00000110: f79c 253d 4cc4 2e3d 38fa 893d 8871 f73d
00000120: e122 bb3c 6352 f33a 6ace ba3d 76ff 3e3c
00000130: 0eba 1fbc 4043 a43d f43c 80bd cb04 f93c
00000140: dd96 073d 5db3 c23d 7f85 803d 7693 71bd
00000150: e9fe 083d 3a34 22bc 0e05 c0bd 7273 de3c
00000160: 7c08 94bd a474 c4bb e718 bcbc a3ad 9b3d
00000170: 03b0 92bc edb0 83bc de98 6fbc 1b84 b8bb
00000180: 5a05 873d 825c 573d 62c0 89bd 75d7 05be
00000190: 3374 a8bd 5cf6 033e dd7a 69bd 3356 13bd
000001a0: 94c7 2bbe f511 2bbd aa21 c43c 17c7 18bd
000001b0: 8853 91bd 5577 90bc 718c 6e3d 855b 703d
000001c0: 7f5a 5cbd a10d c0bc e7ba d03c d9ee 6d3d
000001d0: fbcd b43c 6f13 d93c e48f 4f3d 422e 5bbd
000001e0: db50 44bd 99ca 843d cb7b ccbd 8337 6abd
000001f0: 6bda 6fbe dc44 86bd 02f3 303d e1b9 d5bc
00000200: a39b aebc bacc ba3d cd5b 24bd 9447 e7bb
00000210: 2400 813d 461c 603c a255 94bd 2dec 333d
00000220: 79c8 1abb 47f8 b1bc d29c 813c fb0d 4d3d
00000230: 74b0 b6bd b81a e03d 1111 383b 8878 543d
00000240: 13bb 0abe 032a a3bd 76c7 763b 31e4 c1bd
00000250: b57e 54bd efe2 87bd 88c2 253d e3fb 8a3c
00000260: 0433 dbbc 67ec 3b3d 8fd9 c8bc 7067 323d
00000270: c0ac 893c bfc7 8d3d 6a81 273d 8057 a03b
00000280: 6562 d63c 27f1 b9bd 72c2 5b3d 0a67 bebd
00000290: 9dc4 17bc 9995 c03d 72b3 83bd 3616 3bbd
000002a0: 9804 44bd 7589 373d 9c4e 06bc db04 7b3d
000002b0: 166b acbd 5da0 7abd ada6 573d 75ae 6fbd
000002c0: da7d 3ebd 9a45 1f3d 47d0 5c3d 0120 a4bb
000002d0: 57a9 3b3d dbc6 e33b ee87 f2bd 44c7 97bd
000002e0: 3e01 933c 56ec 763d 1057 683d ffdb 853c
000002f0: 8641 80bd fd37 353d f8e0 ddbc 5a46 9d3d
00000300: 0242 91bd 5ae1 6e3c 3df7 6abc e9f4 8dbd
00000310: 03a5 c9bd ac11 6fbd 527e 6cbd d6dd febc
00000320: 068b 313d e6f3 a8bc dd87 9fbc ed1c 7a3d
00000330: 364e 783d 1945 17bc 9480 acbd 62c2 2dbd
00000340: e15d 3dbd 8060 413d 9e4b 443d 38be b6bc
00000350: 2387 103d 8031 5bbd 01b3 523c 0c46 b13d
00000360: 2391 edbd e175 833c 477b d1bc f733 c6bb
00000370: 3d70 843c dc7b 0e3d 9e59 1abd 16a1 703d
00000380: ebd2 f93c f85e 123b 1401 0ebe 41fa 013a
00000390: 4517 36bc 6d18 29bd f7fe 723d ac4b 3e3d
000003a0: b3cf ae3d 8d50 5d3c 1c6c c13c f990 91bd
000003b0: 745d 43be 8579 8d3d a09c 23bd c165 013d
000003c0: cf74 78bd 72aa 07bd ac2b 2f3d e9d5 923d
000003d0: 6da0 13bd cc8f 7b3d 3bac a8bc 74c0 95bc
000003e0: cfa1 933c 0903 59bd eb88 613a bbb3 9c3c
000003f0: dd8f 423d e8bc 893c da0e ad3c 74ca 973c
-0.054880697 0.019683383 -0.05900764 0.025448402 -0.110603794 -0.04636445 0.057542827 0.078399636
-0.09809275 -0.056903895 0.018241864 -0.04573791 -0.032225266 -0.06406672 -0.006697019 0.048079807
-0.032250434 0.06858258 -0.044234823 0.14591323 0.016687293 0.03554288 0.02170511 -0.08884042
0.023481803 0.03601936 0.0008004017 0.041181695 -0.022943223 0.05899952 0.07438557 0.08215193
-0.05224302 -0.05738006 0.06361273 0.04726206 0.05075036 0.069368325 0.0030064795 0.18758938
0.0062967124 0.06297346 -0.057102256 0.0002882011 -0.049724117 -0.04491777 0.028948287 0.015097926
-0.046712253 0.009331951 0.11165787 0.1048232 0.06011511 0.03066654 0.040889323 0.09615583
0.004610399 0.042353235 -0.060090106 -0.0004921254 -0.03845075 0.014649731 0.09186808 0.0073047727
-0.052403357 0.031928536 0.009852148 0.13073573 0.040432896 0.042667672 0.067371786 0.12082201
0.02284378 0.0018563982 0.091214016 0.011657586 -0.009748949 0.080206394 -0.06261626 0.030397793
0.03310286 0.09506867 0.06275462 -0.05897852 0.033446226 -0.009900147 -0.09375964 0.027154658
-0.07228181 -0.00599535 -0.022961093 0.07601478 -0.017906195 -0.016075576 -0.014623849 -0.0056309826
0.065928176 0.052578457 -0.06726147 -0.13070472 -0.08225288 0.12886947 -0.057001937 -0.035970878
-0.16775352 -0.041765172 0.023941834 -0.037299242 -0.070960104 -0.017635027 0.058239404 0.05868103
-0.05379724 -0.023443999 0.025479747 0.05808911 0.022070875 0.026498524 0.050674334 -0.05351091
-0.047928672 0.06483955 -0.09984549 -0.057181846 -0.23423164 -0.06556103 0.0432005 -0.02608961
-0.021314448 0.0912108 -0.04012661 -0.0070580933 0.06298855 0.013678616 -0.07242896 0.043926407
-0.0023618026 -0.021724833 0.015821848 0.05006216 -0.089203745 0.10942596 0.0028086344 0.05187276
-0.13547926 -0.079669975 0.003765551 -0.09467352 -0.05187865 -0.06635081 0.040468723 0.016965812
-0.026757725 0.045879748 -0.024517803 0.043555677 0.016806006 0.06922864 0.040894903 0.0048932433
0.026169965 -0.09079199 0.053652234 -0.09296997 -0.009263185 0.094035335 -0.06430711 -0.04567548
-0.047855943 0.044808824 -0.008197453 0.061283927 -0.084188625 -0.06118809 0.05264919 -0.058515985
-0.04650674 0.038884737 0.053909566 -0.005008698 0.045815792 0.0069511957 -0.11842333 -0.07411054
0.017944928 0.06028398 0.056723654 0.016340254 -0.062624976 0.044242848 -0.027084813 0.07679434
-0.07092668 0.014580095 -0.014341173 -0.069314785 -0.098459266 -0.058366463 -0.057737656 -0.031111639
0.043345474 -0.020624112 -0.019473964 0.061062742 0.060621463 -0.009232783 -0.08422962 -0.042421706
-0.046232108 0.04721117 0.047923677 -0.0223075 0.035285126 -0.053514004 0.012860061 0.086559385
-0.11599948 0.01604742 -0.025571479 -0.006048675 0.0161668 0.03478609 -0.03768312 0.058747374
0.030496081 0.0022334438 -0.13867599 0.000495825 -0.011113946 -0.04128306 0.059325185 0.046458885
0.08535709 0.013507974 0.02361112 -0.071077295 -0.19078618 0.06907944 -0.03994429 0.03159118
-0.060658272 -0.033121534 0.042766258 0.071697064 -0.036041666 0.061416432 -0.020589938 -0.018280245
0.018021492 -0.05298141 0.0008603471 0.01912867 0.04750048 0.01681371 0.021125246 0.018529154

l1.weight f4 [600, 100]
00000000: 9502 903d f485 5a3d eedf e93d c6de 11bd
00000010: 878d cbbd 6164 48bd 6d4c 59bd 138e c93c
00000020: a8aa 37bc 4395 84bd 29c4 fdbc b3f1 873d
00000030: a2a6 b23d 3ec2 78bd 1045 9cbc 3dfb bfbc
00000040: ec0e 883d 9443 213d e5c9 afbc f44c 25bc
00000050: ccfa 43ba 3d78 a2bc 519a b9bd 017b 393d
00000060: df75 39bd 419a 8b3c 678f 80bd 7cf6 78bd
00000070: c6da 4d3c 9a7b e03c 9830 adbd 8af8 333d
00000080: 2403 88bd b403 233c c35c 8fbd f8f3 c1bb
00000090: 7ab1 c23d 6054 74bd 48d6 ecbc 1b7e 613d
000000a0: bbb3 533c c5e3 d9bc a515 f93b 24ef a8bd
000000b0: 561a 0f3b 878a 9bbd f366 33bd d32a 143d
000000c0: cf35 c23c 82a3 adbd 6bf1 be3d ee31 76bd
000000d0: 84f7 b6bb aaa9 afbc f85b 57bd b32b 493d
000000e0: 7bf4 84bd 88de c13d d93f 893d ead7 0cbd
000000f0: 7a17 623d f2c9 0f3d 08d8 4b3d 2412 693d
00000100: f8a4 d23b 658f e5bc 25e0 2bbd 57d6 8abd
00000110: 492f cb3d 6f85 ca3d 7d34 b03c 622d 7b3d
00000120: b08d 1e3d de0e 133d ed57 c3bb c789 b13d
00000130: 5fff 6cbc 39a7 a83d 22b9 513c e23d 84bc
00000140: e9dc 993c b736 6a3d e8b7 c8bd effb 08bd
00000150: 6fd7 2fbc d201 abbd 39fb c63b 624e 57bd
00000160: deb5 bfbd 6ca2 7cbd 6dc6 0ebd 0f36 e5bc
00000170: dbcf da3c 4df1 30bd 5447 2ebd 892b 5c3d
00000180: f808 4b3d 527c 123c 0dd1 0d3d 57a2 9c3d
00000190: 8708 e3bd 0490 2bbd 459c d03d b46f 0dbd
000001a0: b725 8d3c 58ad 80bd 1ea9 343c c697 c63a
000001b0: 597f 9cbd cc10 b5bc b12d 52bd 2a6a 31bd
000001c0: 920d 82bc c310 7a3d c63f 1a3d 7075 03bd
000001d0: fabe 35bd 1c1f 5ebd 7f42 65bd 46ed c0bc
000001e0: 8804 2dbc a4dd 523d 701a 193d 50d6 8e3d
000001f0: 741b 163d 0d9f b03d 9ac6 90bd 3a18 5abd
00000200: 5299 28bd 23cd 3c3d 26e6 03bd e1f8 91bd
00000210: 0fa6 923c 05f0 b33d 0b60 663d 982f 3a3d
00000220: af8e 9fbd 5bfd d63c c839 dabc b672 a2bc
00000230: 7944 653c 79d0 a23d a86b ab3d 319b 4a3d
00000240: 825d a6bd 9a94 823d cad6 6c3d 95b1 f33c
00000250: 7bfd d1bc 5d24 86bd 2e47 5f3d d03d aabd
00000260: e166 0c3d 8a44 d5ba fa22 bb3d e470 863d
00000270: 235b d33c b631 223d f2ef 76bd 7dbb 43bd
00000280: bb47 c1bd b1da 00bc b58e acbc 0bf3 6bbd
00000290: f885 633d 0aa9 993d 8485 c93c 2086 f5bc
000002a0: b395 bfbd 3030 63bd e546 673d c377 6cbd
000002b0: c554 eebd e015 9ebc f61b b33c 0015 b7bc
000002c0: b4a2 783c 2b79 983d 5eb9 8ebd 9b94 8e3c
000002d0: 5f6d ca3d fe1e 833d a847 86bd da0a 42bd
000002e0: f9cf 98bd b04e 0bbd a054 99bd 7e38 a23d
000002f0: 16ba 93bc 5aec 87bd fa1f 25bd c8e8 bdbd
00000300: d992 07be 1406 923b 4b69 2dbc 4ed5 cd3d
00000310: d1b0 d13d f9d5 c93d 007a 083e a431 edbb
00000320: 2f08 85bd f6c5 69bd aa00 4cbd 1365 313d
00000330: 8ec5 5a3c cc17 9dbd 2aec abbd f22e b2bd
00000340: 6217 943c 6b0b 903d af7f cfbd 473a 12be
00000350: 5726 ffbc 48df 36bd 7a33 bdbc eb0f 11be
00000360: 5695 9e3c 4bff 013d 03a8 4f3d 43f6 86bd
00000370: cc4a 47bd 3c02 a6bc 7b21 e33a 694b db3d
00000380: 68bd c8bc 9e4b 483d bafa 8bbd a83f 9bbd
00000390: 83b0 32bd 3c01 33bb f8f2 f73c 0a49 ed3d
000003a0: 98bf 913d 659f c5bd 5e54 003d b3de 20bd
000003b0: 1f42 213d 8ebe ddbc d542 4fbd 0ce6 d5ba
000003c0: f801 8abd 6777 753d 80ec 87bd 7ba3 c2bd
000003d0: 115e 1ebd cdcd 4bbd 0a4a 0ebd 5e89 cf3b
000003e0: ee78 97bb 0f8c 08bd 2f08 9bbd 72b4 53bd
000003f0: 639b f4bc 1a70 963d e2cd ab3c b010 73bb
0.070317425 0.053350404 0.11419664 -0.035612844 -0.099391036 -0.048923854 -0.0530514 0.02460388
-0.011210121 -0.06473782 -0.030977326 0.06637897 0.08723189 -0.06073212 -0.0190759 -0.02343523
0.06643471 0.03937109 -0.021458576 -0.010089148 -0.00074760313 -0.019832725 -0.09062637 0.04528332
-0.045278426 0.017041327 -0.06277352 -0.06078194 0.012564367 0.027402688 -0.08456534 0.043938197
-0.06641224 0.009949613 -0.07000115 -0.005918976 0.09506507 -0.05965078 -0.028910771 0.055051904
0.012921269 -0.026597867 0.007601457 -0.082487375 0.0021835766 -0.07594781 -0.043799352 0.036173653
0.023707299 -0.08478452 0.093233906 -0.06010621 -0.0055837054 -0.021443207 -0.052577943 0.04911394
-0.064919434 0.094662726 0.06701631 -0.0343856 0.05519817 0.0351047 0.04976657 0.056902066
0.006428357 -0.028022477 -0.041961808 -0.06779163 0.09921128 0.09888732 0.021509403 0.061322577
0.038709342 0.03590285 -0.0059614093 0.08668857 -0.014465182 0.0823502 0.012800487 -0.01614279
0.018782096 0.057181086 -0.09800702 -0.033443388 -0.010732516 -0.083499566 0.0060724285 -0.052564986
-0.0936086 -0.061678335 -0.034857202 -0.027979879 0.026710441 -0.043198872 -0.042548493 0.053752456
0.0495691 0.008940773 0.034623194 0.07648151 -0.11085611 -0.04188539 0.10186056 -0.034530357
0.017229898 -0.06283063 0.011026649 0.0015151433 -0.07641477 -0.022102736 -0.051313106 -0.043314137
-0.015875611 0.06105114 0.037658475 -0.03209442 -0.044371583 -0.054228887 -0.05597162 -0.02355064
-0.010560162 0.051480904 0.03737873 0.069744706 0.036647275 0.086240865 -0.0706913 -0.05324576
-0.041161843 0.04609407 -0.03220191 -0.07127548 0.017901449 0.087860145 0.056243937 0.045455545
-0.077908866 0.026243856 -0.02663888 -0.019830089 0.013993376 0.07949919 0.08370143 0.04946441
-0.08123304 0.06376 0.057822026 0.029747764 -0.025633564 -0.065499045 0.05451124 -0.08312571
0.0342778 -0.0016271037 0.091375306 0.06564501 0.025800293 0.03959819 -0.060287423 -0.047786225
-0.094375096 -0.00786464 -0.021064142 -0.05760483 0.055547684 0.07502945 0.024599798 -0.029971182
-0.09354725 -0.055465877 0.056464095 -0.0577314 -0.11637262 -0.01929754 0.021863919 -0.02234888
0.01517551 0.07444986 -0.0696895 0.017404845 0.09884142 0.06402396 -0.06556636 -0.04737363
-0.07461543 -0.03401059 -0.07486844 0.07920931 -0.018033069 -0.06636877 -0.0403137 -0.09272915
-0.13239612 0.004456291 -0.010584186 0.1005045 0.10238803 0.09855265 0.1332779 -0.0072385836
-0.064957015 -0.057073556 -0.04980532 0.043309283 0.013352765 -0.076705545 -0.08394654 -0.0870036
0.018077556 0.07033428 -0.101317756 -0.14280044 -0.031146212 -0.04464653 -0.023095835 -0.14166228
0.019358318 0.031737607 0.050697338 -0.065899394 -0.048655316 -0.020264737 0.0017328704 0.10707743
-0.024504378 0.04890024 -0.06834932 -0.07580501 -0.043625366 -0.0027313968 0.030267224 0.11586197
0.07116622 -0.09649543 0.03133046 -0.039274883 0.0393697 -0.027068403 -0.050600845 -0.001631917
-0.06738657 0.059928324 -0.06636906 -0.09503838 -0.038663927 -0.049756814 -0.034738578 0.006333514
-0.0046225702 -0.033336695 -0.0756992 -0.051685758 -0.02985925 0.073456004 0.020972196 -0.0037088804

l1.bias f4 [600]
00000000: 4b44 f8bd 6241 60bd 8ca7 a83c 70f9 a43d
00000010: 507a acbc 9849 3dbd cc2e a63d def3 473d
00000020: 071b b5bd 16b7 0dbe a807 ee3d 6662 f53b
00000030: f2e8 e43c 6a71 3a3b 11bf 17bd d6a7 eb3d
00000040: 9b65 debd 3a38 f23d 6cb4 0bbb 39fa 913d
00000050: 41ca 833d ef2b 083d 02d7 d83d 91e4 cbbd
00000060: 8b44 30bd 6a12 973d de94 0fbd 9026 6f3c
00000070: 993c b73c 499d 8c3d 3ead 0e3c 309e bf3a
00000080: 830e 07bc c589 b6bb 1c23 793d 98e1 223d
00000090: 0c2c 093e 3324 193c 8c40 ddbc 2505 ca3d
000000a0: 8990 703d 9fa5 233e 2fa3 223d 6aae edbc
000000b0: 24cd 4c3c 6f67 b53c 91bf 5fbd 1df0 003d
000000c0: b90e b9bd 09f5 7fbd 217b 003d 5961 1c3d
000000d0: 1a52 013e 7e50 af3d 9264 a73d dfe2 a43c
000000e0: 0216 1f3c 7183 1b3a 61b9 f2bd 7692 c4bd
000000f0: 0851 0cbe 0520 863d 186b 8d3c 2adc 8b3d
00000100: 7bf3 9abd ee69 c43b de33 97bb 4894 d53d
00000110: a2d7 8bbc 612f 5d3d daf2 d03c 0bd5 173e
00000120: 9497 8abd dcf4 b83d 223f 8c3d 3474 903d
00000130: b56b 3a3d 0886 bc3d 825e b0bd 9ba2 c53d
00000140: 02e9 7f3d e81b 433e a3e5 b63d 52a5 5dbd
00000150: 364d 843d d6a8 963b 0111 12be 4d55 763d
00000160: dee9 a73c 8516 a7bd ac20 d5bd ba05 3e3d
00000170: 7926 6fbc 0f6c 893c 2255 a2bb 780d 953d
00000180: a796 773c 8111 8f3c 60b4 e0bd 7284 9cbd
00000190: f62a dabd 36f4 613e 6792 ffbd aefd b0bd
000001a0: 6857 ccbd a085 253d 0ac1 073a cdc8 d9bb
000001b0: cf56 2abd 3a3f 863d c725 ab3c 9928 bc3d
000001c0: f575 533c 0b7d f7bd e05a 8abd 3b03 fb3d
000001d0: a0a4 09bc 81ef ca3d aecc d43d 81d2 723c
000001e0: 1176 3b3c b669 cc3d 196b 3ebe 31f6 04bc
000001f0: 9fb5 17be ad8f a1bd 6c3b 01bd 7524 b7bd
00000200: b02b fa3c a3cd bb3c a6c3 d8bd 1000 d8bd
00000210: 2beb 16bc b4ed 53bd e42e f1bd 0177 4b3d
00000220: bf5c 80bd 89a9 40bb a53d 793d 38bf 073d
00000230: a401 183c 9d66 4c3e 952e febc 51a5 1f3d
00000240: 7650 c5bd 4fe2 5abb 87a9 b6bd 1fba 1cbd
00000250: a2e5 07bd 31a0 fd3c 5872 c43a e40f 883d
00000260: 53a8 bebd a4c9 e2bc 4861 383d dacb 243d
00000270: ca06 febb 9ddf 693d 1090 a73d 0d46 243d
00000280: 649d 8bbc 2a8e 19be 93db da3c 94d8 e3bd
00000290: 51d3 afbc f730 293d d6a5 cdbd 6d0e 5ebd
000002a0: c1a9 c6bd 8383 193d 2ca6 abbd 5388 143d
000002b0: a1c5 83bc d1c4 0ebe 5fa4 c43c 9f84 65bc
000002c0: 79da 8dbc c3e5 fb3b 1f80 fcbb db2c 8c3d
000002d0: 94eb 03bd ae4f 3ebd 66ce e6bd 0a65 843a
000002e0: 8fc8 d53d 21ab 063e ed2f 7d3d 7590 503d
000002f0: 9a2b b43b dab9 51bd 6742 86bd 3658 abbc
00000300: 3ebd e6bd ef0f a53d 295a 503d 0c4c d23b
00000310: 93e1 90bd 05ef 71bd 4fa6 a5bd 1848 96bd
00000320: 0c46 f63c c7e6 43bd e902 35bc 71f1 96bc
00000330: 4c51 1c3d e47a a03d 25df 35be 7dcc d53c
00000340: 358b 13bd 228a 58bc 3120 2abd 9871 86bd
00000350: a0e9 fc3a cb93 0fbd e9aa a63d ee5e 23bb
00000360: 5f70 46be cead 973c 0035 e2bd 63d9 8d3c
00000370: 0bec 87bd ac9a 723d 9d5b 103c 3f78 fbbb
00000380: 1368 843c 2100 9bbd 17ff 33be b1f6 c23d
00000390: b317 a7bc 31f3 7e3c 1fbf 063d 588e ffba
000003a0: e187 3a3d ceb3 c43d 22da d63d 07b1 133c
000003b0: 90f3 3bbe a65c f73d 2740 92bd b58a 94bb
000003c0: c7fc edbd b5cc cd3c 6227 4cbd 4218 8f3c
000003d0: 076e 303d ad3e c83c 2619 c23c 74fb 9bbd
000003e0: f2cc df3d 3898 17be 9585 62bd ffa6 f13d
000003f0: b999 9dbb 1500 8b3a b427 913d d4ca 803c
-0.12122401 -0.054749854 0.020587705 0.08055389 -0.021054417 -0.046212763 0.081143945 0.048816554
-0.08843046 -0.13839373 0.11622554 0.0074885366 0.027943108 0.0028448948 -0.03704745 0.115066215
-0.108592235 0.118271306 -0.0021317257 0.07127804 0.06435061 0.033245023 0.105878845 -0.09955705
-0.043034118 0.07376559 -0.03505408 0.014596596 0.022367762 0.06865937 0.008708296 0.0014619287
-0.008243206 -0.0055706226 0.0608245 0.039765924 0.13395709 0.0093470095 -0.027008317 0.098642625
0.05873159 0.15981148 0.039706405 -0.029013831 0.012500081 0.022144048 -0.05462605 0.03147899
-0.09036011 -0.062489543 0.031367425 0.038178775 0.12628976 0.085602745 0.08173479 0.020127712
0.009709837 0.0005932367 -0.118517645 -0.09598248 -0.13702786 0.06549076 0.01726298 0.06829102
-0.075659715 0.005994073 -0.0046143373 0.10428673 -0.017070595 0.054000262 0.025506426 0.14827363
-0.067671925 0.09031078 0.06847979 0.07053414 0.045512874 0.09205252 -0.08611776 0.09650155
0.062478073 0.19053614 0.089305185 -0.05411274 0.06460039 0.0045977635 -0.14264299 0.060139943
0.020497259 -0.08158592 -0.10406622 0.04639218 -0.014596575 0.01677516 -0.0049539963 0.072779596
0.015111602 0.017464401 -0.10971904 -0.076424494 -0.106527254 0.22065815 -0.12479096 -0.086421356
-0.09977609 0.040410638 0.00051786064 -0.006646252 -0.041586693 0.06555028 0.020892037 0.09187431
0.012906541 -0.12084397 -0.06755614 0.122564755 -0.008401066 0.09908963 0.10390602 0.014820696
0.011441723 0.099811 -0.18595542 -0.008115337 -0.14815377 -0.07888732 -0.03155081 -0.089425005
0.03053841 0.022925204 -0.10584192 -0.10546887 -0.009211342 -0.051740363 -0.11776522 0.049674038
-0.0626769 -0.0029397926 0.060849804 0.033141345 0.009277735 0.19961019 -0.031028071 0.038976017
-0.09634487 -0.003339905 -0.089190535 -0.038263436 -0.03317798 0.030960174 0.001498769 0.06643656
-0.09309449 -0.02768404 0.04501465 0.04023347 -0.007752274 0.05709802 0.081817746 0.040105868
-0.017042823 -0.14995638 0.02671603 -0.111252934 -0.021463068 0.041306462 -0.10041396 -0.054212976
-0.09700347 0.037478935 -0.08381304 0.03626282 -0.016085448 -0.13942267 0.02400416 -0.01400867
-0.01731609 0.007687302 -0.007705703 0.06844493 -0.032207087 -0.046462707 -0.11269836 0.0010100913
0.10438644 0.13151218 0.061813284 0.050919015 0.005498362 -0.051202632 -0.06555634 -0.020916086
-0.11266564 0.0805968 0.050867233 0.006417757 -0.07074275 -0.059065837 -0.080883615 -0.073379695
0.030062698 -0.04782751 -0.011048057 -0.018425675 0.03816347 0.078359395 -0.17760904 0.026098484
-0.03602143 -0.013216527 -0.041534606 -0.06564635 0.00192957 -0.035053056 0.08138067 -0.0024928409
-0.19378804 0.018515494 -0.11045265 0.017315572 -0.066368185 0.059229538 0.008810905 -0.0076742466
0.016162908 -0.07568384 -0.17577778 0.09519709 -0.020397043 0.015560911 0.03289711 -0.0019497378
0.04553974 0.096046075 0.10490824 0.009014375 -0.1835463 0.12078218 -0.07141142 -0.0045331367
-0.11620479 0.025122026 -0.049842246 0.017467622 0.04307368 0.024443949 0.023693632 -0.0761632
0.10927762 -0.1480416 -0.055303175 0.1179943 -0.004809585 0.0010604883 0.07087651 0.015721716

blocks.0.0.fn.0.weight f4 [10]
00000000: 3f21 903f cedd 863f 31dc 823f e1b2 803f
00000010: f783 923f 78aa 9b3f fab0 933f 0315 853f
00000020: 9cc1 8e3f 02ba 823f
1.1260146 1.053644 1.0223447 1.005459 1.1446522 1.2161398 1.1538384 1.0397037
1.1152835 1.0213015

blocks.0.0.fn.0.bias f4 [10]
00000000: 9854 0dbd 165a 173d 11c2 15bb 585e 09bd
00000010: 0f1a 163b b4a9 a03d 6fc3 223d a794 443c
00000020: 9695 d63b d826 17bd
-0.034504503 0.036951147 -0.0022851268 -0.03353724 0.0022903716 0.07844868 0.03973716 0.011998332
0.0065485938 -0.03690228

blocks.0.0.fn.1.keys.weight f4 [10, 10]
00000000: 811d 013e afbd 053e 8c54 51bc d2e0 4e3e
00000010: 8510 a83e 45cf dbbc 0f0a 633e 36ac 22be
00000020: a4cc 61be 0f3a ec3d df1b dd3e 2c03 d9be
00000030: 337c 743c 8c15 a3bd a69f 8a3e 7306 cbbe
00000040: 130e f83d 93d7 6ebe 85a8 e5bd 2a72 47bb
00000050: 115a c0be f0f0 ea39 be77 c2bd d280 083e
00000060: f174 153d ee2f babe 7a13 82be 3e3c 0c3e
00000070: af98 41be 12de cf3e 0af8 abbe a6e0 d23e
00000080: 69d3 b13c 96d3 233e ccd8 9dbd ab20 85be
00000090: 88dc bb3e 4ce1 a03e 5716 22bd c8f3 aa3e
000000a0: 68d8 a2be 7919 5d3e 2f41 bbbe 2a78 db3d
000000b0: 6a6c 0b3e 42ca 8abe 3f2a cebe 9e31 3b3d
000000c0: 1564 b23e ee51 b73e c5f8 3f3e 62f5 f3bd
000000d0: 581c 13be 4278 3c3e 444d 9c3e d0fc afbe
000000e0: 7fc8 b4bd a1a4 c73d 7204 0dbe c55f b3bd
000000f0: ee10 d0be 5ff6 8c3c 978e 343e be7e c0bd
00000100: 281d acbe 0ac0 b5be 8da5 833e c4fc 263d
00000110: 14cc e53e 8844 933d 32ec 383e 287f 813e
00000120: db99 eebe b913 c5bd 5b5f 90be 6f1c 933e
00000130: e0a1 eabe e7b4 7f3d 7b64 aa3e eb93 6bba
00000140: 9e47 2a3e 96ee 763e 7f0e 633e 0173 98be
00000150: 542c 4b3e dd17 ec3d c200 943d e5bb 763e
00000160: d995 b83e b54d b9be eab0 18bd 6f67 97be
00000170: 716e 9a3e d653 a3be 1311 ba3e 211a f93e
00000180: 1cf3 fcbe 1d84 563d 8150 ac3e 62e8 81be
0.12608911 0.1306064 -0.012776505 0.2020295 0.32825103 -0.026832232 0.22171806 -0.15886006
-0.2205072 0.11534511 0.43185326 -0.42385232 0.0149221895 -0.07963094 0.27074927 -0.39653358
0.121120594 -0.23324423 -0.11213783 -0.0030433037 -0.37568715 0.0004481147 -0.09495495 0.13330391
0.036488477 -0.36364692 -0.25405484 0.13694856 -0.189059 0.40599114 -0.33587676 0.41187018
0.021707254 0.15998682 -0.07707366 -0.26001486 0.3669169 0.31421888 -0.039572086 0.33389115
-0.3180573 0.21591748 -0.3657317 0.10716279 0.13615575 -0.27107435 -0.40266606 0.045701616
0.34841982 0.35804695 0.18747242 -0.119120374 -0.14366281 0.1840525 0.305277 -0.34372568
-0.08827304 0.09748197 -0.13771227 -0.08758501 -0.40637916 0.017207323 0.17632519 -0.09399174
-0.33615994 -0.35498077 0.25712243 0.0407684 0.44882262 0.07190806 0.18058851 0.25292325
-0.46601757 -0.096229024 -0.2819775 0.2873263 -0.45826626 0.06242838 0.33279786 -0.000898658
0.16628882 0.24114451 0.22173499 -0.2977524 0.19841129 0.11527989 0.07226707 0.24095114
0.36051825 -0.36192098 -0.037278093 -0.295711 0.30162385 -0.318999 0.36341152 0.48652747
-0.49404228 0.052372087 0.3365517 -0.25372607

blocks.0.0.fn.1.keys.bias f4 [10]
00000000: 514c a6bd 8419 3ebd 536f 7b3e 08b9 f6bd
00000010: f549 e0bc 7648 a23d 2701 e73d b117 a03e
00000020: 3d2c 2abd c1f3 5b3e
-0.08120025 -0.046411052 0.24554186 -0.12047011 -0.027379015 0.07923977 0.11279517 0.31268075
-0.041546095 0.21479703

blocks.0.0.fn.1.queries.weight f4 [10, 10]
00000000: 3c96 683e 7c8c 0fbe 444f 1d3e b0e2 db3d
00000010: 2e00 f7bd 5aa4 7a3e 22cc 513e c28d 763e
00000020: 9280 a0be 2783 783e b8bf a83e 2578 d43d
00000030: a052 bcbd 8600 c13c 72f5 9dbe 8b01 513e
00000040: 31a3 b4be 47b2 7d3d d0a8 23be 5a67 58bc
00000050: a0c9 143f 1c02 803e 17a6 b6be 90a5 15be
00000060: 4eaf 90be 27ce 54bd 7fdb 963e c1d1 d0bd
00000070: 5b65 d0be d273 a9be 373d a43e 4b14 c93d
00000080: d653 7a3e 11c9 84bd bee1 61be ffb5 f23d
00000090: 319e 683e a386 b5be 91d0 bcbe d618 0e3e
000000a0: 00d9 0bbe 1346 b33e c7a9 c0bd 8e34 45bc
000000b0: 9e67 2d3e da4c 833e b82c e93e 02cd 993d
000000c0: 18c3 2cbe 5f12 c2be a7f7 be3c cec0 a53d
000000d0: 725d 09be 717f 11bd 40da 42bb ccaa 243e
000000e0: a018 f43c b233 debe 640f 523e 0826 d2bd
000000f0: 5a15 203e 0819 c83e 5fb3 37be 2001 02bf
00000100: 5871 9fbe ab51 133d 65d5 b83e 70f3 c3bb
00000110: 0742 9239 eef2 f63d 366e 843e 3e19 73be
00000120: c741 5bbe e5c9 4cbd 98d5 fabc a956 dcbd
00000130: 3e23 dabe fc35 aabe 5e98 d63d 6ec6 843e
00000140: a97a cebe f3f0 49be 4fc9 cc3e 1527 6fbe
00000150: fd01 31be d019 613d aaeb 77bd 821f a83e
00000160: 63fc 97bd d8b9 133e 62d7 86be e428 173d
00000170: 8e98 51bd 7e65 d5bd 06d9 debe aca0 333b
00000180: a4f2 163e 00fc 243e 21ab 603e 12a2 803e
0.2271356 -0.14018434 0.15362269 0.107365966 -0.12060581 0.24476758 0.20488027 0.24077514
-0.3134809 0.2426878 0.3295877 0.10374478 -0.09195447 0.02355982 -0.30851322 0.20410745
-0.35280755 0.061937597 -0.15982366 -0.013208235 0.58120155 0.2500161 -0.35673591 -0.14613938
-0.28258747 -0.051954415 0.29464337 -0.101962574 -0.40702328 -0.33096176 0.32077953 0.09818324
0.24446043 -0.06483663 -0.2205877 0.11851119 0.22716595 -0.35454282 -0.36877874 0.13876662
-0.13656998 0.350144 -0.094073825 -0.012036456 0.16934058 0.2564457 0.4554193 0.07509805
-0.16871297 -0.3790464 0.02331145 0.08093415 -0.13414553 -0.03552193 -0.0029732138 0.16080779
0.029796898 -0.43398815 0.20513684 -0.1026116 0.15633145 0.39081597 -0.17939518 -0.50782967
-0.31141162 0.035966557 0.36100307 -0.0059799477 0.00027896484 0.12058054 0.25865334 -0.23740098
-0.21411811 -0.04999723 -0.030619428 -0.107587166 -0.42605013 -0.33244312 0.104782805 0.2593264
-0.40327957 -0.19720821 0.39997336 -0.23354752 -0.17285915 0.054956257 -0.06052748 0.3283654
-0.07421186 0.14426363 -0.263362 0.03690423 -0.051170878 -0.10419749 -0.4352495 0.0027409
0.14740998 0.16111755 0.2194028 0.2512365

blocks.0.0.fn.1.queries.bias f4 [10]
00000000: 4a0d 8dbe a39d c9be a6ae c9bd ed7c 2d3e
00000010: 71f7 a4be 6d62 94be 5765 babc ca8f 46be
00000020: 2f06 0d3e c83c 61bb
-0.275492 -0.3937808 -0.09847765 0.16942187 -0.32220033 -0.28981343 -0.0227534 -0.19390789
0.1377189 -0.0034368504

blocks.0.0.fn.1.values.weight f4 [10, 10]
00000000: f097 afbe 051f b93e 3e07 f9bd 7603 1e3d
00000010: f8c3 94bd f69b aa3e 5281 92be 41fa 7f3e
00000020: bc3e 863e 6b7b b13d 03d1 eb3c 9155 52be
00000030: 2bfb c83d 51d8 153e 49ad 503c da31 e2bd
00000040: 134d 0fbd 9b4e 66bd 10d6 c83d ed64 b33c
00000050: e839 1f3e f850 8cbe f752 dfbc 8d0a 5bbe
00000060: 1442 79bd d6c7 213e ddea 90be ea3b 233d
00000070: e86e 63bc bed3 8ebc f8b5 a8be 7514 be3c
00000080: 94d0 d2bd b61c d43b 2742 49be 002e debe
00000090: ac09 92bd 259b 5bbd e60e 3abe b963 033e
000000a0: 4e89 2c3e 4cc1 84be 6c45 19be 0eec aebc
000000b0: cb7b 98bd df56 7abe 274e 89bc 89f3 c83d
000000c0: 8f32 7ebe 8aa6 c1bd e522 f53d 9aa3 f0bd
000000d0: efea 93be aa9d 4b3e 0c1f 0f3e ce8e 61be
000000e0: eb54 d0bd 7acb 353e 1437 bd3d d61e 6a3e
000000f0: 7d55 943e 7194 2c3e 8290 01be 755c 57be
00000100: 93f8 b73e 6fca a63e 99f2 d3be e401 6fbe
00000110: 36b5 463e a571 6f3e e53d f4bd b4f9 62be
00000120: 2464 203d b851 ef3c 563e 963e e7aa 493d
00000130: 64ae 05be ff1e 6cbe fb80 66be 83fe e7bd
00000140: dc2d 60bc 577f f43d d4af d2bc 0394 8dbe
00000150: 83fe 86bd 0f67 e5bd 5761 933d 590a 44be
00000160: 1288 0fbe 007c abbe d87d b33d e3cd 4cbb
00000170: 135c 57be 49a8 063b 8294 1ebe 853c 42be
00000180: d7d9 463e 7f77 5bbe 1670 7ebe f328 2d3e
-0.34295607 0.3615648 -0.121595845 0.03857752 -0.072639406 0.33322114 -0.2861429 0.24997808
0.26219738 0.08666118 0.028786188 -0.20540453 0.098135315 0.146333 0.012736627 -0.11044665
-0.034985613 -0.056227308 0.09806454 0.021898711 0.15549433 -0.27405524 -0.02726124 -0.21390744
-0.060854033 0.15798888 -0.28304186 0.03985206 -0.013881423 -0.01743495 -0.3295133 0.023203114
-0.10293689 0.006473149 -0.19654141 -0.4339447 -0.07130751 -0.053614754 -0.18169746 0.1283101
0.16849253 -0.25928724 -0.14967889 -0.021352794 -0.07445487 -0.24447201 -0.016760899 0.09812076
-0.24823974 -0.09455593 0.11969546 -0.117499545 -0.28890178 0.19884363 0.13976687 -0.22027132
-0.10172447 0.17753401 0.09239021 0.22863325 0.28971472 0.16853501 -0.12652782 -0.21031363
0.35931835 0.3257632 -0.41396025 -0.23340565 0.19405064 0.23383196 -0.11925868 -0.22165567
0.039158 0.029213771 0.29344434 0.04923525 -0.13054806 -0.23058699 -0.2251014 -0.11327841
-0.013682809 0.11938351 -0.025718607 -0.27651986 -0.06591513 -0.112012975 0.071963005 -0.19144572
-0.1401675 -0.33493042 0.08764237 -0.0031250648 -0.21031217 0.0020547083 -0.15486339 -0.18968399
0.19419037 -0.21432303 -0.24847445 0.16910152

blocks.0.0.fn.1.values.bias f4 [10]
00000000: 45a9 31be 2788 32be 1dbf 66be b883 033e
00000010: 1596 6e3e c8bc 37bc f3d9 68be ddbe 703e
00000020: 50da 943e 85cf 1e3e
-0.17349727 -0.1743475 -0.22533841 0.12843215 0.23299439 -0.011214443 -0.22739391 0.23510309
0.2907281 0.1550885

blocks.0.0.fn.1.projection.weight f4 [10, 10]
00000000: 9a78 733e e135 cebc 9bec d73d 0fa3 a7be
00000010: dacc d1be 5012 9e3d dc90 073e 18e4 9e3e
00000020: 7be6 493e 9f72 babe dedf 963d 171b 6abe
00000030: 9635 533e 5e8c 193d 818f ac3d 896e 42be
00000040: 39e1 2f3e 0e76 3b3e 5bce 153e 902e 4ebe
00000050: 1628 733e d0e4 7b3e 1577 8f3e 8fb2 fdba
00000060: bff5 2b3e 6263 223e 1b72 443e e650 063e
00000070: bbf3 263d c409 0abe 8c14 b6bd b56d 0e3e
00000080: 4df4 29bd 101d 3abd d71f 2ebe a888 853e
00000090: dd56 32bd c117 b5be 5016 2c3e 9c64 7ebe
000000a0: 8f44 79be 481f 2fbd f86a b13d fe76 0d3e
000000b0: 36c9 1cbe 206f 58bd 194a d4bd 575d 8fbe
000000c0: 4158 69be e4b8 9fbe 0ec1 b2bc dc5f a43e
000000d0: ef31 07be 3ad7 fdbc 507c 68be 3b40 37be
000000e0: 0011 d83d f39c febb d007 90be 3a10 363e
000000f0: 6020 3ebe f5b4 12bd f7ec 833e 3d95 9b3d
00000100: 3dc7 0fbd e0f8 f8bd 7b51 533e 0b04 3dbd
00000110: 16ec a0be 49e7 14be c8da c1bd 149d 8bbe
00000120: e571 0cbd f2bc b13e 7c67 c23c e2b1 6c3d
00000130: 8156 d93d c768 98be 3509 88be a57d 943d
00000140: 4434 83bd f38e 86bd 9cc0 6a3d f14c be3e
00000150: 222d c2bd d762 08bc 1e88 98be b9b2 aabd
00000160: d154 74bd 4a42 203e d99c 753e b7ff 0b3d
00000170: 4c73 363e 4c0b d13d 2ffb 79be b5eb 323d
00000180: ae3f 05bc 182a b03d 3314 b23e 3580 003e
0.23776475 -0.025172176 0.10543176 -0.3274159 -0.40976602 0.077183366 0.13238853 0.31033397
0.19716828 -0.36415574 0.07366918 -0.22861896 0.2062591 0.03748738 0.08425809 -0.18987478
0.1717576 0.18306753 0.146295 -0.2013495 0.2374576 0.24599004 0.2802054 -0.0019355583
0.16792963 0.15858224 0.19184153 0.13116798 0.040759783 -0.13480288 -0.08890638 0.13909037
-0.04149275 -0.045437872 -0.17004333 0.26080823 -0.04353987 -0.35369685 0.16805387 -0.24843067
-0.2434256 -0.04275444 0.08662981 0.13814923 -0.15311131 -0.052840352 -0.103656955 -0.280009
-0.22787572 -0.31195748 -0.021820571 0.32104385 -0.13202642 -0.030986417 -0.22703671 -0.17895596
0.105501175 -0.0077701746 -0.2813096 0.17779627 -0.18567038 -0.035817105 0.25766727 0.07596824
-0.035102118 -0.12156844 0.20636551 -0.046146434 -0.3143012 -0.14541353 -0.09465557 -0.2726828
-0.034288306 0.34714466 0.023730986 0.05778683 0.106122024 -0.2976744 -0.26569524 0.07250527
-0.06406453 -0.06570234 0.057312593 0.37168077 -0.09481265 -0.0083243465 -0.2979135 -0.0833487
-0.0596512 0.15650287 0.23985614 0.034179416 0.1781742 0.10207233 -0.24412225 0.04368182
-0.008132858 0.08601779 0.34781036 0.12548907

blocks.0.0.fn.1.projection.bias f4 [10]
00000000: d290 113e a540 afbd f207 c03d 57cd 433e
00000010: e537 cd3c 0b33 f13d 93bf 063e dc31 e73c
00000020: cb52 723d 76f4 c93d
0.14215401 -0.08557252 0.093765154 0.191213 0.025051067 0.11777314 0.13159017 0.028222017
0.05916099 0.0986108

blocks.0.1.fn.0.weight f4 [10]
00000000: 0ff1 423f d0e6 4f3f af47 553f 4f4c 6b3f
00000010: bd22 5b3f 7360 593f 8aed 5f3f 0a08 6a3f
00000020: da10 3e3f f001 603f
0.76149076 0.81211567 0.83312505 0.9191331 0.8559988 0.84912795 0.8747183 0.91418517
0.74244463 0.87502956

blocks.0.1.fn.0.bias f4 [10]
00000000: 4ae0 473d 5c4f 30bd 6994 8d3d 0492 553a
00000010: 8280 d23d 86cd f4bc 5fcd f23c 16d3 9b3d
00000020: 2d86 0fbd 1633 85bd
0.048797883 -0.043044433 0.069130726 0.0008147063 0.10278417 -0.029883157 0.029638944 0.07608621
-0.03504007 -0.065038845

blocks.0.1.fn.1.0.weight f4 [40, 10]
00000000: 3cdf 04be 1418 833e 23a4 b6bc dd0e 4abd
00000010: 5b56 0bbe 633b 8ebc 4cae 90bd ee93 4a3e
00000020: 9316 2e3e f211 3d3d 4635 88be 5a11 6f3e
00000030: 9e58 123e 2bd0 66be 0bd5 39be 0b2a 4d3e
00000040: 8a71 473e 658c 88be 022c ac3d 54c6 833e
00000050: 0c25 abbd 9b95 573e 3148 f1bd fed7 9c3d
00000060: f0ad 49be b2a7 c4bd 5da7 4a3e 12f8 013d
00000070: f2ee 9ebe 2da9 183d 9d8c 973e d4dc 023e
00000080: 2c8c b83d de71 8bbe 9e10 8f3e 4ed2 7d3e
00000090: b435 f1bd 07db 2a3e d9d8 5b3e cbc1 2c3e
000000a0: 5c27 ec3d be9d 53be 8949 acbd cb02 debd
000000b0: 4e0b 703e f098 bbbd d229 cfbd 9466 30be
000000c0: 7e43 dbbc 1010 fcbd 4d60 74be ae25 87be
000000d0: 09f1 e0bd 6973 0bbe ab19 8d3e dd41 ff3d
000000e0: 472b 8a3e 64bc 4c3e 4a61 433e 2745 6b3e
000000f0: 2258 0e3d 6001 2c3b 40d5 dabd 1230 0fbe
00000100: 6c04 46bd a41a 3c3e 229c 5a3c 1edc 7cbe
00000110: 2d13 59be 84d9 733d 468e 6ebe 07c8 c43d
00000120: 70d9 6b3e 189a 523e 66fe 9cbd 60ca ad3c
00000130: 8af4 113c 27b7 d3bd d574 9dbd 0989 1cbe
00000140: 369c c23d ae58 77bd 7ed0 153e 88c0 33be
00000150: 5b3f 59be 4483 1d3e 5701 2d3e 042b 9d3e
00000160: bf85 783e a673 d9bd fc35 d7bd 42da e2bc
00000170: 80ec 8e3d f8b7 17be 9d2f f2bc ed5f 7c3d
00000180: 358c f6bd 456f a43c c011 0c3e 0a72 37be
00000190: 4a4e f5bd 6692 53bb eb0c acbd 9d8b a3bd
000001a0: e271 703d 360f 6d3c 2c10 c53b b98b fd3d
000001b0: 8655 803e c11b 323e 0a63 fdbc 4800 a53d
000001c0: 470c 66be a469 423e c6dd f03d 2538 24be
000001d0: e0a0 9ebd e367 33be 6ab7 e53d 7417 5d3e
000001e0: 1697 debd 5d2d 16bc c541 cbbd 91ca 103e
000001f0: fa2f 47be d2d7 16be 51da 39bd 3398 3dbc
00000200: eb12 243d 4752 22be 6c45 1e3d 7593 2c3e
00000210: 5f43 4e3e 61fe a33e 8a5b 29be 08c8 753e
00000220: 8b43 713d 079a c43d cf3d 5cbd e111 dd3d
00000230: 3406 2c3e ea34 d8bd 41ec 563e 379c 62be
00000240: 20c1 21be b367 2d3d 7ba7 c7bd da8e 9ebe
00000250: 2588 c1bd ae86 24bd dd46 353e aca1 11be
00000260: 1a8e 693e 5721 81be f87c 983c 21be 923e
00000270: 6117 85be 77e8 6fbe 0010 2cbd f256 59bd
00000280: 819e 4abd 3c08 b2bd 0b0f 36bd a1d8 68be
00000290: 24a8 453e 7e2d 213e ca89 1d3e 3e40 a4be
000002a0: 7249 783e ed1d 8d3e 7e9f 9abd d204 5abe
000002b0: 00ea 4e3e 684d 30be 772d b13e f180 9d3d
000002c0: 0af1 adbd e543 4cbe 2996 e93d 6008 ccbd
000002d0: b3ec 51be a776 073d bbda adbc 26d2 d3bc
000002e0: 8d6f 043c 62a9 413e 6395 573e cbdc 56be
000002f0: 121d 4c3e f7d5 da3c 21dc 4a3d 119d ce3d
00000300: 0f13 013e 39d8 6a3e 37d9 b7bd b8ac af3d
00000310: fc90 7e3d a138 fb3d 11b1 3e3e 8ed0 8f3e
00000320: 63d6 62bd ed4d efbd 08ce 2bbe 0869 8fbe
00000330: a986 31bd 15c5 1f3d 3974 273e b944 073e
00000340: 82bd 51bd 97da ebbd f95f f0bd 5c69 233e
00000350: 353b 413e 0b43 df3c a8d6 923e 4e21 bfbd
00000360: c25c fdbd 74bc 39be 09e9 f8bd 6af9 d03d
00000370: 139b 053e 8755 c3bd 666a 3fbe 57ee 563e
00000380: 1aa7 9f3c cebe 98bd 9802 a93d 53cb 1abd
00000390: b88c 85bc de3a d6bd da0d 3f3e 1f25 dd3d
000003a0: b9c4 a8bc a02b 25be a92c 1ebe abe7 2b3e
000003b0: 40e2 bf3d 191e 6fbe 5850 abbd 6188 bdba
000003c0: ca14 c63d b532 38be 3dbf 453d 2c7e 37be
000003d0: f4e9 c83d 5ffc 6fbc 867e 80be 3706 dcbd
000003e0: aab4 d1bc c98a 2a3d ae1c cebd a398 e9bd
000003f0: 5bc0 9fbe 9b29 9abe a6a2 003d 9846 a3be
-0.12975782 0.25604308 -0.022295063 -0.04933058 -0.13607161 -0.017362302 -0.070644945 0.19782993
0.17000799 0.046159692 -0.26603144 0.23346463 0.14291617 -0.22540347 -0.18147676 0.2003557
0.19476905 -0.26669613 0.08406831 0.2573725 -0.083566755 0.21053164 -0.117813475 0.07658385
-0.19695258 -0.09602298 0.19790407 0.03173072 -0.31041676 0.037270714 0.29599467 0.12779552
0.09011111 -0.2723531 0.27942365 0.24787256 -0.11777821 0.16685115 0.2146944 0.16870801
0.11530945 -0.20665643 -0.08412463 -0.108403765 0.23441812 -0.0916003 -0.101153985 -0.1722663
-0.026765581 -0.12307751 -0.23864861 -0.26395935 -0.10983474 -0.13618244 0.27558646 0.12463734
0.26986143 0.1999374 0.19080082 0.22975598 0.03475202 0.0026245937 -0.106852055 -0.13983181
-0.04834406 0.18369538 0.013342889 -0.24693343 -0.21198721 0.05953361 -0.2329646 0.09608465
0.23032165 0.20566595 -0.0766571 0.021214664 0.0089084 -0.10337668 -0.076882996 -0.1528665
0.09502451 -0.060387306 0.14630315 -0.17553914 -0.21215574 0.15382105 0.16895042 0.3069688
0.2426977 -0.10617761 -0.105083436 -0.027691964 0.069787025 -0.14816272 -0.02956372 0.06161492
-0.12038461 0.020072589 0.13678646 -0.17914596 -0.11977823 -0.0032283305 -0.084009014 -0.079856135
0.058702357 0.014468959 0.0060138907 0.123801656 0.2506525 0.173934 -0.030931015 0.08056694
-0.22465621 0.18985611 0.1176105 -0.16037042 -0.07745528 -0.17520098 0.11216624 0.21590978
-0.10868661 -0.009166089 -0.09924654 0.14139773 -0.19451895 -0.14730766 -0.04537422 -0.011571932
0.040057104 -0.15851699 0.038640425 0.16853125 0.20142888 0.32030013 -0.16538826 0.24002087
0.058902305 0.09599691 -0.053769883 0.10794426 0.16799241 -0.105569676 0.20988561 -0.22129904
-0.15796328 0.042335223 -0.09748741 -0.30968362 -0.09449796 -0.040167503 0.17702813 -0.14221829
0.22808114 -0.2522075 0.018614277 0.28660682 -0.259944 -0.23428522 -0.042007446 -0.053061433
-0.049467567 -0.08692977 -0.04444794 -0.22738887 0.19302422 0.1574001 0.15384594 -0.32080263
0.24246767 0.27561894 -0.07549952 -0.21290901 0.20206451 -0.17217028 0.34605 0.07690609
-0.0849324 -0.19947775 0.11405594 -0.09962535 -0.2050045 0.03307214 -0.021222463 -0.025857043
0.008083236 0.1891227 0.2105308 -0.20982663 0.19932964 0.026713355 0.049526338 0.10088552
0.12604927 0.22934045 -0.08976977 0.08577865 0.062149987 0.122666605 0.18622233 0.28088802
-0.055380236 -0.11684785 -0.16777813 -0.2800982 -0.043341313 0.03900631 0.16352929 0.1320981
-0.05120612 -0.11516302 -0.11737055 0.1595816 0.18870242 0.027253648 0.28679395 -0.09332524
-0.12371208 -0.18138295 -0.12153823 0.10203822 0.13047437 -0.095377974 -0.18692932 0.20989357
0.01948886 -0.07458268 0.08252448 -0.03779156 -0.016302451 -0.10460447 0.18657628 0.10798096
-0.020601617 -0.16129923 -0.15446724 0.16787593 0.09369326 -0.23351325 -0.08364934 -0.00144602
0.09671934 -0.17988093 0.048278082 -0.17919225 0.09810248 -0.014647572 -0.2509653 -0.10743373
-0.025598843 0.041636262 -0.10064064 -0.11406066 -0.31201443 -0.30109867 0.031405114 -0.31889796

blocks.0.1.fn.1.0.bias f4 [40]
00000000: 1aa4 263e ecb7 023e 5ee5 01bc 54a2 47be
00000010: f7a7 3c3e 94ca 3abe 3eaf 163e 3469 993b
00000020: 9683 6ebe 69a2 fc3d 0226 723e 27fe 97bd
00000030: 6e1e 133e 4e6e 73be c78b 933d aa7a 97be
00000040: 6e68 b0bd 8df8 e4bd 8e41 8bbe 579f a4be
00000050: 13d9 60be 1bb4 c8bd 28bb 6e3e 3984 0a3c
00000060: 7d64 08bd 943a e7bd 9864 49be cea8 413e
00000070: 2c4c febd 4d4d 9abc 395a 383e d8d0 48be
00000080: 2b2d 82be e4ca 7ebb ba60 353e a154 293d
00000090: 6f29 063e d28e 88be 1fe5 803e a570 6bbe
0.16273537 0.12765473 -0.007928221 -0.19495517 0.18423449 -0.1824134 0.14715287 0.0046817306
-0.23292384 0.12335665 0.23647311 -0.074215226 0.14367077 -0.23772547 0.07204395 -0.29585773
-0.086136684 -0.1118022 -0.27198452 -0.32152817 -0.21957807 -0.097999774 0.23313582 0.008454376
-0.033298958 -0.1129047 -0.1966728 0.1891205 -0.124168724 -0.018835688 0.18003167 -0.19610918
-0.25425085 -0.0038878256 0.1771268 0.041340474 0.13101743 -0.26671463 0.25174806 -0.22992189

blocks.0.1.fn.1.3.weight f4 [10, 40]
00000000: 2bd1 e23d fb02 fd3d 9640 adbc 65ad b0bc
00000010: 32a9 20bd 464c aa3c edfc 67bd ebf2 523e
00000020: bde0 a6bd fbf3 07bd 80da 893d 7404 6c3b
00000030: 13bd 803c cf4a af3d 1ab4 7d3a c5db 443d
00000040: bdb1 0c3d 883f 953d 20b4 513d a070 eb3d
00000050: 3a84 a8bd 2fc5 e73d ff17 bfbc d156 12bd
00000060: f366 61bd c7d5 30bd b74d 783d 1642 e23d
00000070: 213e 263d f016 353d 0cdf e33a 4dd1 09bc
00000080: 4473 9d3d 5498 ed3c bbc1 dc3a dfd4 22bd
00000090: dfea 0fbd e8f9 0cbd 7d99 6a3d d296 233d
000000a0: 53d6 0ebe 18ce 99bd 1de5 0abe 8333 5e3d
000000b0: 088d ae3b 1e52 813d 204e 863b 4523 f03b
000000c0: 7806 88bc 910a 1fbd 5d85 053d e189 9a3d
000000d0: 767a 56bc 5831 48bd cdbb 443d 0276 003e
000000e0: 95de aa3d b735 533e 6812 50bc f34b 173d
000000f0: 8dc9 d03c f294 3a3d 8a90 923d 01de debd
00000100: 4474 e53d 17cd dfbd da40 ea3d 2a3b b03d
00000110: f4cf 68bd f01c 15bb b700 813c 6878 1bbe
00000120: 221e 11bc 8b6f 7bbe 12b9 c63c f32a f2bd
00000130: 8eda 0cbd 72c1 97bd 3382 7dbd 8c0a e7bb
00000140: 986c 883d 8321 22bd a692 41bd 1a39 a63d
00000150: 4658 273d 4e5f a13b 8ffd 573d c57b 01be
00000160: bbc8 05be 30bd b1bd d646 843d 68a4 1d3e
00000170: 5fec 0ebc 0ee8 a83b b113 92bd 861f 4d3d
00000180: 5900 8fbc 78a0 bfbc 8d7e 1c3b 48f6 a43d
00000190: b9dd af3d d4b4 3e3d 56ac bd3d 689a b8bd
000001a0: b3fc 85bd abc8 a63c 93b6 013d 957c 47bc
000001b0: 1c86 69bd ded6 29be a9ec 6abc 8196 243e
000001c0: 3037 20bd 19c4 a2bd bdf7 86bd 05c1 873c
000001d0: 4682 8dbc fedd c5bd 918a e03c 9e33 1f3d
000001e0: 595e f03d 4cf2 b03d 54bb 6dbd 0d5f 083e
000001f0: 4817 11bd 64e1 143c a08c 223d 4e3b e1bc
00000200: f09e 413c d239 bc3b 34f8 d03d a1a6 11bd
00000210: 71a5 8abd 97ad 04be d297 433d 2a1b ad3d
00000220: b964 423d 38e5 9fbc b2aa b7bd 606a 08be
00000230: d4ea d23d 1053 2cbd 8216 92bb 6894 1b3e
00000240: efc4 343d c279 db3d 0016 643d 34fe 383c
00000250: ddcc 49bc 2c0c 573d 8d95 bc3d fffc 463d
00000260: cbd8 acbd 605a 6a3d dfcd 4fbd bf97 933c
00000270: e354 ee3d 75b5 aebd 1377 493c 986e 30be
00000280: b5f2 01b9 545c bfbc 8a8b 293d 6b42 a1bd
00000290: bb3f 08be b947 51bc 62b2 9ebd 211e 81ba
000002a0: 886f 8c3d 813f a63c 107d d0bc fc23 37bd
000002b0: 4ea1 0d3d 5f94 f13d 9806 05ba 2682 073d
000002c0: 5dcf 16bd d52b b1bd a209 753c 2785 453e
000002d0: 841c 38bc 6cbc 9ebd a0af 1cbc 421e 97ba
000002e0: 8a79 dfbd 4127 c5bc 8f0c e93c c7d2 e1bd
000002f0: 7e7e abbd 3127 b83c 4031 1cbd 5f48 b8bd
00000300: c974 663d bf5b 6bbc 4128 7bbc c721 b7bc
00000310: 62f6 483b df4f 0f3d d869 abbd df5c 0b3d
00000320: b573 863d 8f34 e6bd a10a 7a3d 59cb ecbc
00000330: bc7f 15bd f260 67bc bb3a 1dbe 22c8 d63c
00000340: 3bda 53bd 5d67 8bbd fdd6 cb3d 63ca f73d
00000350: ef7d abbb 08d5 25be 83b5 b33b e0f2 0fbe
00000360: ae0c 66bd 1cb5 bcbd ee4f 15be 591f 653c
00000370: f86e babd aced 3bbd 9cb4 e53d a6bf 0dbe
00000380: 1750 8d3d e5b1 c33d c1f9 dbbd 6468 86bc
00000390: d2ac 5cbd f704 ad3c 7d20 40bd 7de3 893c
000003a0: 4289 12bd e1b8 a63c 771a aebd f0a1 9cbd
000003b0: 9313 e9bb 2ecb 23be 3be6 fdbc d451 223e
000003c0: f994 113d 3a9a b13c 624e 1dbd 8f9a 313e
000003d0: 8e45 783c 19b4 93bd ee75 e93c ca03 a9bd
000003e0: 651c e4bd 14de 473b e192 2dbd 4633 c4bc
000003f0: 21c6 aebd 9689 c03b c153 1e3d 2ca3 1d3e
0.11075052 0.12354084 -0.021148961 -0.021567056 -0.039223857 0.020788323 -0.056637693 0.20600478
-0.08148334 -0.033191662 0.06731129 0.0036013396 0.015715158 0.085591905 0.00096780213 0.04806115
0.034349192 0.07287508 0.05119717 0.11496091 -0.08228345 0.11316907 -0.023326872 -0.035727326
-0.05502982 -0.043172624 0.06062099 0.11047761 0.040586594 0.044211328 0.0017385199 -0.008411718
0.07688001 0.0290033 0.0016842404 -0.03975379 -0.0351361 -0.034418017 0.057275284 0.039938755
-0.13948946 -0.075100124 -0.13563962 0.054248344 0.005326871 0.06314491 0.0040986687 0.007328423
-0.016604647 -0.038828436 0.03259789 0.075458296 -0.01309072 -0.048875183 0.048030663 0.12545016
0.083432354 0.2062596 -0.012699701 0.036937665 0.025486732 0.0455522 0.07156475 -0.10882188
0.112038165 -0.1092779 0.11438151 0.08605035 -0.056838945 -0.0022752844 0.015747411 -0.1518265
-0.008857282 -0.24554269 0.02425817 -0.11824598 -0.034388117 -0.07409944 -0.061891746 -0.007050818
0.066613376 -0.03958274 -0.047258995 0.0811636 0.04085567 0.0049246913 0.052732047 -0.1264487
-0.13064854 -0.08678663 0.064588234 0.15394747 -0.008723347 0.005154616 -0.07132662 0.05007889
-0.01745622 -0.023391947 0.002387914 0.08054787 0.08587212 0.04655917 0.09261386 -0.09013826
-0.06542339 0.020359358 0.031668257 -0.012175699 -0.057012662 -0.16585872 -0.014338651 0.16073038
-0.03911513 -0.07947559 -0.06590221 0.016571531 -0.017274033 -0.09661482 0.027409824 0.038867585
0.117367454 0.086399645 -0.05803998 0.13317509 -0.035422593 0.00908694 0.03968489 -0.027494099
0.011817679 0.0057441974 0.10203591 -0.0355593 -0.06769837 -0.12956844 0.04775221 0.08452447
0.047459338 -0.01951848 -0.089681044 -0.13321829 0.10298696 -0.042071402 -0.0044582495 0.15193331
0.044133123 0.10716583 0.055685043 0.0112910755 -0.01231691 0.052501842 0.09208212 0.04858112
-0.084397875 0.057215095 -0.050733443 0.018016694 0.116372846 -0.08530704 0.012296456 -0.17229688
-0.00012392814 -0.023359455 0.04139284 -0.07873996 -0.13305561 -0.012773448 -0.077488676 -0.0009850898
0.068572104 0.020293953 -0.02545026 -0.04471205 0.03457766 0.11795878 -0.000507453 0.033083104
-0.03681885 -0.086509384 0.01495591 0.19289075 -0.011237267 -0.07750782 -0.009563357 -0.0011529403
-0.109118536 -0.02406657 0.028448371 -0.11026531 -0.08373736 0.022479625 -0.038132906 -0.08998179
0.05626372 -0.014365136 -0.0153294215 -0.022354973 0.0030664434 0.03498828 -0.083697975 0.034024116
0.06565038 -0.112404935 0.061045293 -0.028905557 -0.03649877 -0.014122235 -0.15354435 0.026218478
-0.051721793 -0.06806824 0.09953115 0.12099149 -0.0052335183 -0.16194546 0.0054842844 -0.14057493
-0.056164436 -0.09214231 -0.14581272 0.013984525 -0.09103197 -0.04588096 0.11216089 -0.1384264
0.069000416 0.09555415 -0.10740996 -0.0164072 -0.05387575 0.021120531 -0.046905983 0.016832108
-0.03577543 0.020351829 -0.085011415 -0.076480746 -0.007112929 -0.15995476 -0.030993572 0.15851527
0.035542462 0.021679986 -0.03840483 0.17344116 0.015153302 -0.07212085 0.028498616 -0.08252676
-0.11138228 0.003049736 -0.042376403 -0.02395023 -0.08533884 0.0058757765 0.038654093 0.15394276

blocks.0.1.fn.1.3.bias f4 [10]
00000000: 0ee4 e2bc 170f f4bc 1dda 47bd 4faa e3bd
00000010: 3531 03bd 20d2 86bd 1393 d7bb 95d4 2fbd
00000020: 95eb 0e3d 9e9b 9e3d
-0.027696636 -0.029792352 -0.048791993 -0.11116468 -0.03202935 -0.06583047 -0.006578812 -0.042927343
0.034892637 0.077445254

blocks.1.0.fn.0.weight f4 [10]
00000000: b676 843f f6df 983f 2c7b 9e3f 71fa 8a3f
00000010: c696 8c3f 5eb0 9c3f 198e 913f fd69 903f
00000020: b69e 8c3f 41ef 903f
1.0348728 1.1943347 1.2381339 1.0857679 1.0983512 1.2241323 1.137149 1.1282345
1.0985935 1.1323014

blocks.1.0.fn.0.bias f4 [10]
00000000: e733 893c 3f98 a5bd f91e 11bd 7238 2b3d
00000010: 9ede 60bc 5a86 0bbd e023 a73b 3b33 db3d
00000020: f959 06bd bc0b 38bd
0.016748382 -0.08085679 -0.03542993 0.041801877 -0.013724951 -0.034063675 0.005100712 0.10703131
-0.03280065 -0.044933066

blocks.1.0.fn.1.keys.weight f4 [10, 10]
00000000: b39c 6ebe ff99 cbbe 5d77 9ebe 2856 91bb
00000010: 7b94 b9bc 2c06 f03d 2ec9 0dbc 73e2 f13e
00000020: 2618 f63e b604 62be f1f5 72be 117d 6b3d
00000030: 0de4 f53d 5979 ba3d 974c 93be 3b19 813e
00000040: 5a58 d1bd b9d8 963e 4f91 5d3e 769b 04bd
00000050: db36 ae3c 202d a7be 6b7c 84be 38d5 fd3c
00000060: 871f bdbe 1be1 11be fd7c d0bd 6166 7ebd
00000070: c13e 97bb 95a8 ecbe 6f86 8d3d 53f5 6a3e
00000080: f09f b0be f5ca 153e b971 0b3f f3c0 063f
00000090: 213f 16bd c955 d83e 5d4c a8be 3250 b9be
000000a0: 0d86 353c f447 96be 0b1d 6bbe bfcf b43e
000000b0: 1556 5dbd fb7f ddbe c0a8 03be 9288 263d
000000c0: 7a62 883d 9005 f93e ee3e 2a3b 00c1 e4bd
000000d0: 19f5 e43d 60e1 74be fac2 813e c5cb 6ebd
000000e0: 2d92 413d 624e 9fbd 33d1 c83c 4ba5 b03e
000000f0: bbfd fc3d 3213 743e d633 1b3e 66ab 3cbe
00000100: 0818 28be 430a c3bd cc1e 5a3e ae6a c5be
00000110: ba59 c4be 532d 893e 5d00 c8be 8faa e7be
00000120: 400a bbbe 02a6 e53e ba4b 4a3d fe10 53be
00000130: 73b1 fc3c 88ce 89bc 7cac e03e a494 75be
00000140: 054f 6ebe b45f 583e 02c5 b4be 207c adbe
00000150: 8bae 24be 8cde f63e 5ce4 d33c d047 e8be
00000160: fc00 01bf 2520 cf3d 2fa8 9cbe bf66 763e
00000170: c513 5d3e b52b 9d3e 73c0 99be 1685 49bd
00000180: bdf7 b5be c96a cabd 2155 8bbc 6d9e 68be
-0.23301964 -0.39765927 -0.30950442 -0.0044353195 -0.022653809 0.11719927 -0.008653922 0.4724308
0.480653 -0.2207211 -0.23726632 0.05749232 0.12006388 0.091051765 -0.2876937 0.25214562
-0.1022193 0.2946222 0.21637462 -0.03237482 0.021266392 -0.32651615 -0.25876173 0.03098546
-0.36938116 -0.14246027 -0.101800896 -0.062109355 -0.004615635 -0.46222368 0.06910407 0.22945146
-0.34497023 0.14628203 0.544704 0.5263817 -0.0366813 0.4225295 -0.3287076 -0.36193997
0.0110793235 -0.2935177 -0.22960298 0.35314748 -0.054037172 -0.43261704 -0.12857342 0.040657587
0.06659408 0.48637056 0.002597745 -0.11169624 0.11179561 -0.23914099 0.25344068 -0.0582998
0.047258545 -0.07778622 0.024513816 0.3450111 0.12353083 0.23835447 0.15156493 -0.18424758
-0.16415417 -0.09523442 0.2130081 -0.38557953 -0.38349706 0.26792392 -0.39062777 -0.45247313
-0.36531258 0.44853216 0.049388625 -0.20611951 0.030846333 -0.016822115 0.43881595 -0.23982483
-0.23272331 0.21130258 -0.35306555 -0.33883762 -0.16082208 0.48216665 0.025865726 -0.4536729
-0.5039213 0.10113553 -0.30597064 0.24062632 0.21589573 0.30697408 -0.3002964 -0.049199186
-0.35540572 -0.09883649 -0.017008366 -0.22716685

blocks.1.0.fn.1.keys.bias f4 [10]
00000000: b767 343e 2e8c 8abd fbfc 073e e9fb 913e
00000010: ca4b 393e 7648 8e3c 4b71 47be 7b1f 173d
00000020: 3890 8e3e 178d bf3d
0.17617689 -0.067650184 0.13280098 0.28512505 0.18095317 0.017368536 -0.19476812 0.036895256
0.27844405 0.093530826

blocks.1.0.fn.1.queries.weight f4 [10, 10]
00000000: c868 d83e 1c90 333e 700e a73d 077e 08bf
00000010: 26ea 253e d9be bc3e e711 223d 0081 5abe
00000020: 3035 d4be be3b 423e bbf5 5d3e 6784 853e
00000030: 855b e93d 837c 5bbe e49d 953d d252 bdbc
00000040: e06a e23d 89ac 27be 77ff 043e a990 f4bd
00000050: 5da6 a13e 2ea5 5d3e 74c4 8f3e 7b18 65be
00000060: 85bd afbe d035 5e3d a700 00be 51ed 0abe
00000070: 4665 f8be 72c9 c73e 64a0 7fbd 5226 ac3e
00000080: 8783 43be 13bc 273e cfd4 bbbe dbe4 8cbe
00000090: dd7e 02be 7e5b f23e dac7 f43d e401 9a3e
000000a0: f4f1 1bbe 3456 4b3e adc9 e5be 7658 8d3e
000000b0: 27d3 c93e 76b9 b8be f54c 9f3e f9b2 853d
000000c0: 925f 20be d892 0f3e fada 2cbd acd3 293e
000000d0: 8212 973d a99d 293e 0b3c e73e cff1 9fbe
000000e0: e073 9bbe fe05 583e fe6b 25bb 9608 a63e
000000f0: 443c 96be 4c6f 09bf 55fa 0abe 54ee a03e
00000100: ef60 78bd 74c9 bbbe 0acf 4a3d 951d 3f3e
00000110: 772f 2a3e bdac 60be 0cf8 843e 4b23 673e
00000120: 115a b3bd 5de5 b3be 3b3c ff3d 6ea8 073d
00000130: 5569 bc3e f75d aebe 880e 39be 8e5c e13e
00000140: d322 94be 5eec 35be 4506 96be 33da af3e
00000150: 6dcc 873e a817 073e f38d bbbe e438 253e
00000160: a67e 5a3e da69 933e 6491 073e 1f72 283e
00000170: 0949 a5be c99a 5fbe 5d65 39bd 07cc 95bc
00000180: a488 3d3e da59 91bd eb02 65be d5a3 80be
0.42267442 0.17535442 0.081570506 -0.533173 0.16202602 0.36864355 0.039567854 -0.21338272
-0.4144683 0.18968102 0.2167577 0.26077577 0.11394409 -0.21434216 0.07305506 -0.02311078
0.11055541 -0.1637441 0.12988077 -0.11941654 0.31572238 0.21645042 0.2807957 -0.2237262
-0.3432428 0.05425054 -0.12500249 -0.13567092 -0.48514766 0.39020878 -0.06240882 0.33622986
-0.19093142 0.16380338 -0.36685798 -0.27518353 -0.12743707 0.47335428 0.11952181 0.30079567
-0.15229017 0.19857103 -0.4488043 0.27606553 0.3941891 -0.36078995 0.311134 0.06528277
-0.15661457 0.1402086 -0.04220102 0.16584653 0.07376577 0.16564049 0.45162997 -0.31239173
-0.30361843 0.21096036 -0.002524137 0.32428426 -0.29342854 -0.5368545 -0.13572057 0.3143183
-0.060639318 -0.36677134 0.049513854 0.18663628 0.16619669 -0.21940894 0.25970495 0.22572057
-0.08757413 -0.35135928 0.1246266 0.03311961 0.36799112 -0.34056064 -0.1807195 0.44015926
-0.2893282 -0.17765948 -0.29301658 0.3434616 0.26523152 0.13192618 -0.36631736 0.16134983
0.21337375 0.28791696 0.13239056 0.16449784 -0.32282284 -0.2183639 -0.045262683 -0.018285764
0.18509156 -0.07097216 -0.22364394 -0.25124994

blocks.1.0.fn.1.queries.bias f4 [10]
00000000: 678f 4c3e 00b2 3aba 1c90 6ebe f786 88be
00000010: 9e76 3b3e 5fe6 12be f6b7 1cbe 8f05 8cbe
00000020: 2d75 bebb 11bd 91be
0.19976579 -0.0007121861 -0.23297161 -0.2666547 0.18306968 -0.14345692 -0.1530455 -0.2734799
-0.0058123083 -0.2846456
